Epi-49514.pth (torch, 277155 bytes, 7 tensors)

f1.weight f4 [256, 6]
0	0xbec90c4d	-0.39267197
1	0xbe3e9e04	-0.18614966
2	0x3e28c6cc	0.16482085
3	0x3e79ff8e	0.24413893
4	0xbe6dac67	-0.23210298
5	0xbeac3e4b	-0.33641276
6	0x3e515cbd	0.20445533
7	0x3e5da834	0.21646196
8	0x3e785ee3	0.24254946
9	0x3eaa47c8	0.3325789
10	0xbe24ac1d	-0.16081281
11	0x3d92b804	0.071640044
12	0xbe2b2bfc	-0.16715997
13	0xbe8a3d54	-0.26999915
14	0xbe66f896	-0.22555766
15	0x3e549174	0.20758611
16	0xbe9a70d8	-0.30164218
17	0x3ed2fd9b	0.4120911
18	0x3e2da008	0.16955578
19	0xbea47559	-0.3212078
20	0xbc9a3d8c	-0.018828176
21	0xbdf8bcf6	-0.121454164
22	0xbeb7a097	-0.35864708
23	0x3e62bb9a	0.22141877
24	0xbea678d4	-0.3251406
25	0xbe85d626	-0.26139945
26	0x3ccf9c20	0.025343
27	0x3ec30a88	0.38093972
28	0x3d907c19	0.0705492
29	0x3d77089a	0.060310937
30	0xbe309c97	-0.17247234
31	0xbea40147	-0.32032225
32	0x3ea49700	0.32146454
33	0x3d983fc9	0.07434041
34	0x3d85471c	0.06507704
35	0x3ea8f211	0.32997182
36	0xbe82d6d0	-0.25554514
37	0x3d898623	0.06715038
38	0xbea37ca4	-0.3193103
39	0xbbc68a26	-0.006058949
40	0x3e7c1772	0.24618319
41	0x3e70deea	0.23522535
42	0x3d46a89b	0.04850064
43	0xbe45cbbb	-0.19315998
44	0x3defbbae	0.11705719
45	0x3dac1b7c	0.0840368
46	0xbe3f1be6	-0.18662986
47	0x3da31641	0.07963229
48	0xbeae1180	-0.33997726
49	0xbe05787f	-0.13034247
50	0x3e9a8d0f	0.30185744
51	0x3e1dc1d8	0.15405977
52	0xbe1dc06c	-0.15405434
53	0xbcb98f2a	-0.022651274
54	0x3e8d411c	0.27588737
55	0xbe48192d	-0.19540854
56	0xbce4d2b4	-0.027932502
57	0xbe244bf9	-0.16044606
58	0x3efe5484	0.49673855
59	0x3cbba4d6	0.022905748
60	0x3e9e3c09	0.30905178
61	0x3e4b3390	0.19843888
62	0xbe99bebc	-0.3002833
63	0x3eff966c	0.4991945
64	0xbd596a65	-0.05307998
65	0x3e47e824	0.19522148
66	0x3d1c64cc	0.038182065
67	0xbed4e6d1	-0.4158235
68	0x3cd108d7	0.02551691
69	0x3eb307c5	0.34966865
70	0xbd4d8dc9	-0.050184045
71	0x3c34fe60	0.011046976
72	0xbe997f1b	-0.29979786
73	0x3e9a6516	0.30155247
74	0xbe25ef71	-0.16204621
75	0xbd67ac35	-0.056560714
76	0x3ea1e022	0.31616312
77	0x3da012c2	0.07816078
78	0xbd47fbe0	-0.04882419
79	0xbe8d3733	-0.27581176
80	0xbda5e292	-0.080998555
81	0xbece3175	-0.40272108
82	0xbead11be	-0.338026
83	0x3c847e16	0.016173404
84	0xbe9eb1e7	-0.30995104
85	0xbe55dc92	-0.20884922
86	0x3ebee28c	0.37282217
87	0xbea99761	-0.33123305
88	0x3d34039a	0.043948747
89	0xbea7fd91	-0.32810643
90	0x3eac513f	0.33655736
91	0x3d305bf6	0.04305645
92	0x3e443753	0.1916173
93	0x3ebd8536	0.37015694
94	0xbea044a5	-0.31302372
95	0x3d86381e	0.06553672
96	0xbdf65482	-0.12027837
97	0x3eacc2f5	0.3374249
98	0xbe0d9c3a	-0.13829127
99	0xbe99e4d5	-0.30057397
100	0x3d120b95	0.035655577
101	0xbde85603	-0.113445304
102	0x3ec21799	0.3790863
103	0x3ed8e152	0.42359406
104	0x3eaa4864	0.33258355
105	0xbe8d709f	-0.27624986
106	0xbe7cad3c	-0.24675459
107	0x3c873601	0.016505243
108	0x3e9491e0	0.29017544
109	0x3e3096f7	0.17245089
110	0x3ea1c724	0.31597245
111	0x3ebe3ae9	0.3715432
112	0x3e5eedff	0.21770476
113	0x3db67860	0.089096785
114	0x3b88da47	0.0041764113
115	0xbcc5dd55	-0.02415339
116	0xbd2a200b	-0.041534465
117	0x3e9280d9	0.28613928
118	0xbd7577cf	-0.05992871
119	0x3eb2ffdc	0.3496083
120	0x3d5c1c89	0.05373815
121	0x3ec2a8b2	0.3801933
122	0xbe39cd13	-0.18144636
123	0xbeaf0221	-0.34181312
124	0xbd8dcfcd	-0.069244005
125	0xbde35e68	-0.11101991
126	0x3e4a2ab4	0.19742852
127	0xbec85924	-0.3913051
128	0xbdcb9245	-0.09940008
129	0x3ecb2018	0.39672923
130	0xbe96d2ef	-0.29457805
131	0x3dbc1257	0.091831855
132	0x3e8c3a3b	0.27388176
133	0xbdde2ba6	-0.10848169
134	0xbe840474	-0.25784647
135	0x3e036b11	0.12833811
136	0xbe579496	-0.21052775
137	0xbea87e6d	-0.32908955
138	0xbca3eb08	-0.020009533
139	0xbc8b9dd5	-0.017043034
140	0xbe95d257	-0.2926204
141	0x3d3bc56d	0.045842577
142	0x3e0d9f63	0.13830332
143	0x3eb9bb39	0.36275652
144	0xbe2f599a	-0.17124024
145	0x3de4f8d4	0.11180273
146	0xbeb23144	-0.34803212
147	0x3ece420e	0.4028477
148	0xbe1a0fd9	-0.15045108
149	0x3cd60254	0.026124157
150	0x3e981512	0.29703575
151	0xbc9131ae	-0.017723884
152	0xbe8e72ad	-0.27821866
153	0xbe573e0b	-0.21019761
154	0xbe7fbbe7	-0.24974023
155	0xbe7b6064	-0.24548489
156	0x3e7f6efc	0.24944681
157	0x3d616503	0.055027973
158	0xbdfa0511	-0.122079976
159	0xbdf99564	-0.12186697
160	0x3e2823a5	0.16419847
161	0x3ba00f81	0.0048846607
162	0xbed8b1b4	-0.42323077
163	0xbe6fba99	-0.23411025
164	0xbe978dfe	-0.2960052
165	0x3ee7e339	0.45290545
166	0x3e32fbba	0.17478839
167	0xbe535269	-0.20636906
168	0xbe9336fc	-0.28752887
169	0x3e9a4bce	0.3013596
170	0x3c6258f9	0.013815158
171	0x3e8c98f8	0.27460456
172	0x3e8fa9a1	0.28059104
173	0xbebb1ef4	-0.36547053
174	0xbd0e7a4e	-0.034784608
175	0x3dde9174	0.10867587
176	0x3e294676	0.16530785
177	0xbe71e0cc	-0.2362091
178	0x3db04717	0.08607309
179	0xbd89340b	-0.066993795
180	0x3e0c918c	0.13727397
181	0x3eacd1e9	0.337539
182	0xbe27b510	-0.16377664
183	0x3e904558	0.28177905
184	0xbdba99ea	-0.09111388
185	0x3e8c6520	0.27420902
186	0x3e30cffe	0.17266843
187	0xbe8ce0b1	-0.27515176
188	0x3e04359b	0.12911074
189	0x3eb5913f	0.35462376
190	0x3ea9b51d	0.3314599
191	0x3e9c5697	0.30534813
192	0x3c7f025b	0.015564526
193	0x3e775931	0.24155118
194	0x3eb80872	0.35943943
195	0x3c79686f	0.015222653
196	0xbe3ee86e	-0.18643352
197	0x3dc14ca7	0.094384484
198	0x3e8e7f41	0.27831462
199	0xbe6eece0	-0.23332548
200	0xbd924676	-0.071423456
201	0xbd64bd42	-0.055844553
202	0x3db5d50f	0.08878528
203	0xbe8c97ff	-0.27459714
204	0xbe830c0f	-0.25595137
205	0x3c8b2746	0.0169865
206	0x3e1d4e05	0.15361793
207	0x3ec6b149	0.38807133
208	0x3e77de4a	0.2420589
209	0x3daef10e	0.08542071
210	0xbe845d7e	-0.2585258
211	0xbc027985	-0.007963543
212	0x3eb41104	0.35169232
213	0xbdfa0cc3	-0.12209465
214	0x3e20865f	0.15676259
215	0x3d1891f9	0.037248585
216	0xbe9857c2	-0.29754454
217	0x3e4eb8a4	0.20187622
218	0x3de71d7c	0.112849206
219	0xbe5b9b78	-0.21446025
220	0x3d299f44	0.041411653
221	0x3e64bcc2	0.2233763
222	0xbd360abd	-0.044443835
223	0x3e392f77	0.18084513
224	0xbea98497	-0.3310897
225	0x3ce773a3	0.028253382
226	0xbe312f29	-0.17303146
227	0x3e858184	0.26075375
228	0x3e241c7e	0.16026494
229	0xbe45c53b	-0.19313519
230	0xbedaa0cb	-0.427008
231	0xbc61de2f	-0.013785883
232	0xbe914d39	-0.2837923
233	0xbcdab623	-0.026698178
234	0x3d7509fd	0.05982398
235	0xbee5432a	-0.44777805
236	0xbe7e9693	-0.24862127
237	0x3d90237f	0.0703802
238	0x3d946c32	0.07247199
239	0xbe141a33	-0.14463119
240	0xbea3066a	-0.3184083
241	0xbeaa1900	-0.33222198
242	0xbe018124	-0.1264692
243	0xbbd5fe39	-0.00653055
244	0xbe8d4868	-0.27594304
245	0x3dd26eee	0.102750644
246	0x3e5e30a6	0.21698245
247	0xbe1402af	-0.14454149
248	0x3eaea302	0.3410874
249	0xbe8850ef	-0.26624247
250	0xbe89c6d7	-0.26909515
251	0x3e2805f3	0.1640852
252	0xbebc9e5e	-0.36839575
253	0x3d877d14	0.06615654
254	0x3e9203e1	0.28518584
255	0x3da8804c	0.08227596

f1.bias f4 [256]
0	0xbe365b0a	-0.17808166
1	0x3ebe19d6	0.37129086
2	0x3eacfdf3	0.33787498
3	0x3d0dbfe3	0.034606826
4	0x3ebb278d	0.36553612
5	0x3ee24492	0.4419294
6	0x3d78aae0	0.060709834
7	0xbca3cff2	-0.019996617
8	0xbe7cce3e	-0.2468805
9	0x3e178842	0.14798072
10	0xbd27a5c1	-0.04092956
11	0x3e2fe9c8	0.17179024
12	0x3e1ca878	0.1529864
13	0xbea557dc	-0.32293594
14	0xbcf6b57e	-0.03011584
15	0xbebbd85c	-0.36688507
16	0x3ea0cc81	0.31406024
17	0x3e905086	0.28186435
18	0x3e80bb8f	0.25143096
19	0xbeb116a3	-0.34587583
20	0xbe66c3bf	-0.22535609
21	0x3e2482cc	0.1606552
22	0xbecb9c88	-0.3976786
23	0xbeb2ec97	-0.3494613
24	0xbcf3b2b7	-0.029748304
25	0xbd95924d	-0.07303295
26	0xbe0918c3	-0.13388352
27	0x3cf72999	0.030171202
28	0x3e99bf25	0.30028644
29	0x3e53ea57	0.20694862
30	0xbe453f5f	-0.19262455
31	0xbda35a78	-0.0797624
32	0xbe6a853e	-0.2290239
33	0x3ec4635f	0.38357064
34	0xbdc12b9f	-0.09432148
35	0x3e2b4685	0.1672612
36	0x3ed42ee1	0.41442016
37	0xbebf90fd	-0.37415305
38	0xbeacbbe9	-0.33737114
39	0x3e3e2677	0.1856936
40	0xbeb8f986	-0.3612787
41	0x3d3e8d78	0.046521634
42	0x3e951ace	0.29122013
43	0xbe84bcde	-0.25925344
44	0x3e4d9293	0.20075445
45	0xbe6eca0f	-0.23319267
46	0xbda04846	-0.07826285
47	0x3ecd4a33	0.40095672
48	0x3e80239e	0.25027174
49	0x3e8b7ed0	0.27245188
50	0xbcaca8f3	-0.021076655
51	0x3c018cba	0.007907087
52	0xbe88a5b0	-0.2668891
53	0x3e3bd02b	0.18341129
54	0xbeb387c6	-0.35064524
55	0xbe369993	-0.17832021
56	0x3e438419	0.1909336
57	0x3e9624d6	0.2932498
58	0x3d309853	0.043114018
59	0x3ebe9ee8	0.3723061
60	0x3ebb32de	0.36562246
61	0x3c027735	0.0079629915
62	0x3d086153	0.03329594
63	0x3e8307ea	0.25591975
64	0xbec7073a	-0.388727
65	0x3e8ada1b	0.27119526
66	0x3de60cd9	0.11232919
67	0x3e6d8a8f	0.23197387
68	0xbc0b7185	-0.008510952
69	0x3e6ca2a2	0.23108914
70	0xbe5de48a	-0.21669212
71	0x3eb7ecd8	0.35922885
72	0xbe7a4590	-0.24440598
73	0x3eb6fbdc	0.35739028
74	0x3e066c74	0.13127309
75	0x3ee18a05	0.44050613
76	0x3e9b12c1	0.30287746
77	0x3d13e359	0.036105487
78	0x3e388e17	0.18022953
79	0x3c13328a	0.008984217
80	0xbe0931d3	-0.13397913
81	0x3e99052c	0.29886758
82	0x3df19ca7	0.11797457
83	0xbc882652	-0.016619835
84	0xbe2ef34a	-0.17084995
85	0xbe32a711	-0.17446543
86	0x3eea7877	0.45795032
87	0x3eda1d75	0.426006
88	0xbe6bbd8a	-0.23021522
89	0x3e653f94	0.22387534
90	0xbd8d1510	-0.06888783
91	0x3ec6bed7	0.38817474
92	0x3da8a891	0.082352765
93	0xbe5cfb2b	-0.21580188
94	0x3e4a717c	0.19769853
95	0x3d7d0261	0.061769847
96	0xbe6502c2	-0.22364333
97	0xbd8450e1	-0.06460739
98	0x3d9826d6	0.07429282
99	0xbeb181c9	-0.3466933
100	0x3ec830f4	0.39099848
101	0x3ea6e2e1	0.3259497
102	0x3e881b4c	0.26583326
103	0x3e71744a	0.23579517
104	0x3e01fa4d	0.12693138
105	0x3deeae04	0.116542846
106	0x3eb49d7c	0.352764
107	0x3ea012d5	0.31264368
108	0x3ebcbad6	0.36861295
109	0x3c675ca7	0.014121211
110	0x3ea80265	0.32814327
111	0x3eabe2f8	0.335716
112	0xbdec90dd	-0.11551068
113	0x3d13b2e4	0.036059275
114	0x3d8da030	0.06915319
115	0xbe8fcca6	-0.28085822
116	0xbeb923ac	-0.36160028
117	0xbd860495	-0.06543843
118	0xbd8e2493	-0.0694057
119	0x3d09ee33	0.03367443
120	0xbe80e1f0	-0.25172377
121	0x3ea8c129	0.3295987
122	0xbea29f2f	-0.31762072
123	0xbeca6c23	-0.39535627
124	0x3ca8447f	0.020540474
125	0x3d9bfd4e	0.076166734
126	0x3e86f5bb	0.26359352
127	0xbe5fb4f8	-0.21846378
128	0xbdb0d872	-0.08635034
129	0x3ee7fa0c	0.45307958
130	0x3e810b85	0.252041
131	0x3d60766b	0.054800432
132	0xbe14e56b	-0.14540641
133	0x3e6f7990	0.23386216
134	0x3e6a734e	0.22895548
135	0xbeca0858	-0.3945949
136	0x3e999984	0.29999936
137	0x3e29c1f6	0.16577896
138	0x3e5ccab5	0.21561702
139	0x3e1e3f65	0.1545387
140	0x3ebc8d3b	0.368265
141	0x3e5640a9	0.20923103
142	0x3ef5a86e	0.47980064
143	0x3ee4925e	0.4464292
144	0x3eab8ef8	0.33507514
145	0xbea41e0c	-0.32054174
146	0x3eeb9d91	0.4601865
147	0x3d9fcbc7	0.07802539
148	0x3e557084	0.20843703
149	0xbe8c96a4	-0.2745868
150	0x3ef83b1e	0.48482603
151	0x3e8ca4a9	0.27469376
152	0xbe7b0020	-0.24511766
153	0xbde30526	-0.11084966
154	0x3e43f0c5	0.19134815
155	0x3e2fa8e7	0.17154275
156	0x3e169dbf	0.14708613
157	0x3ee7e157	0.45289108
158	0xbe190884	-0.14944655
159	0x3ee44268	0.44581914
160	0x3eb53f0b	0.3539966
161	0xbe03152b	-0.12801044
162	0x3d848722	0.06471087
163	0xbe7e0da4	-0.24809891
164	0x3eb2dda2	0.34934717
165	0x3ecf7e7f	0.40526196
166	0xbe05b76d	-0.13058253
167	0xbea7a5e4	-0.32743752
168	0xbe081ff9	-0.13293447
169	0x3d6a0e68	0.057142645
170	0xbe88c0ad	-0.267095
171	0x3e7e7466	0.2484909
172	0x3ee60225	0.4492351
173	0xbd85c8e5	-0.06532458
174	0x3ec804a5	0.39066043
175	0xbe9e9bc1	-0.30978206
176	0x3e1edf39	0.1551484
177	0x3e9bcfb5	0.30431905
178	0x3de5b87e	0.1121683
179	0xbe898286	-0.26857394
180	0xbeafe0e3	-0.34351262
181	0x3e761994	0.24033195
182	0x3e196086	0.14978227
183	0xbe783477	-0.24238764
184	0x3e9460fe	0.2898025
185	0xbdcc75eb	-0.099834286
186	0xbd358420	-0.044315457
187	0x3df663f2	0.12030782
188	0xbe659216	-0.22419009
189	0xbea15c21	-0.315156
190	0xbea3082d	-0.31842175
191	0x3ee1cd29	0.44101837
192	0x3ecfcd76	0.40586442
193	0xbed90061	-0.42383102
194	0x3dd8ce96	0.10586278
195	0x3c8e80f6	0.017395478
196	0x3d080f11	0.033217493
197	0x3ddc010e	0.10742389
198	0x3e8f880c	0.28033483
199	0xbed0c412	-0.4077459
200	0xbe910a65	-0.28328243
201	0xbc888ff7	-0.01667021
202	0xbe373317	-0.17890583
203	0x3e84ba6c	0.2592348
204	0xbe7bec11	-0.24601771
205	0x3eaeb636	0.3412339
206	0x3d03db2b	0.032191437
207	0x3c16356d	0.009168011
208	0x3ea1004c	0.3144554
209	0xbd1de2b5	-0.038546283
210	0x3ea2905d	0.31750765
211	0x3ea8eb78	0.32992148
212	0x3e88b8ca	0.26703483
213	0x3e995eb2	0.2995506
214	0x3e921a83	0.28535852
215	0x3eda4d58	0.42637134
216	0xbe24b569	-0.16084827
217	0xbe95e19f	-0.29273698
218	0xbeae4d3e	-0.34043306
219	0xbe6c253a	-0.23061076
220	0x3ed9405e	0.4243192
221	0x3eb03c8d	0.34421197
222	0xbed57a55	-0.41694894
223	0x3da23e51	0.07922042
224	0x3e924223	0.28566083
225	0xbec1e734	-0.37871706
226	0xbe9c6db6	-0.30552453
227	0x3ea6c12e	0.3256926
228	0x3edbd03a	0.42932302
229	0x3ed2676c	0.4109453
230	0xbe929d63	-0.28635702
231	0x3ef5cb56	0.48006696
232	0x3eaece9f	0.34142014
233	0x3d404a4f	0.046945866
234	0x3e9bde15	0.30442873
235	0xbe8703f1	-0.26370195
236	0xbe8a3d19	-0.2699974
237	0xbe258e3a	-0.16167536
238	0x3dee896c	0.11647305
239	0xbed0a5ce	-0.407515
240	0xbe7288b1	-0.23684956
241	0x3ec4810a	0.383797
242	0xbe338ea5	-0.17534883
243	0xbe1cf59f	-0.15328072
244	0x3e2bcb33	0.16776733
245	0xbea52a48	-0.3225882
246	0x3dce9204	0.10086444
247	0xbecdef27	-0.4022152
248	0x3c0ad560	0.008473724
249	0x3ed59b91	0.4172025
250	0x3cd86af3	0.026418185
251	0x3ed8084d	0.42193833
252	0xbdb3df6b	-0.08782848
253	0x3e597b39	0.21238412
254	0xbe0fb2c2	-0.14033034
255	0x3e4074c4	0.18794543

f2.weight f4 [256, 256]
0	0xbdc5b14e	-0.09652959
1	0xbda09b75	-0.07842151
2	0xbcff074f	-0.031131415
3	0x3d07e92b	0.03318135
4	0x3b912b06	0.0044301776
5	0x3cdb198e	0.026745584
6	0xbc7e4a66	-0.015520668
7	0x3c67ca2f	0.014147325
8	0xbd72520c	-0.059160277
9	0xbcfebc1d	-0.031095559
10	0xbc59a0a1	-0.013282926
11	0x3d080536	0.033208095
12	0xbc9116d7	-0.017711086
13	0xbcabb689	-0.020961063
14	0xbe2b8645	-0.16750439
15	0xbd94fdaa	-0.07274945
16	0x3d035a36	0.032068454
17	0xbe567f6a	-0.20947042
18	0xbc3be473	-0.011468041
19	0xbce6b281	-0.02816129
20	0xbdb69850	-0.0891577
21	0x3daa5606	0.08317189
22	0x3ce345c4	0.027743228
23	0xbcecc061	-0.028900327
24	0xbb60f9f7	-0.0034328678
25	0xba4fbda7	-0.0007924684
26	0xbc764140	-0.015030205
27	0x3c445973	0.011984217
28	0xbdbb63eb	-0.09149917
29	0xbc0d7bd2	-0.008635478
30	0xbdcb0768	-0.09913522
31	0xbd8056ce	-0.06266557
32	0xbd862f7e	-0.06552027
33	0x3d886385	0.06659607
34	0xbe1b5514	-0.15169173
35	0xbcb5dbcf	-0.02219954
36	0xbd6f1382	-0.058368213
37	0x3d98f680	0.07468891
38	0xbc7dfa35	-0.015501549
39	0x3cce1898	0.025158212
40	0x3d641808	0.05568698
41	0x3cbf81eb	0.02337738
42	0xbaed21d0	-0.0018091742
43	0xbdc95b6d	-0.09831891
44	0xbd18cfff	-0.037307736
45	0x3bb0b820	0.005393043
46	0xbadb310e	-0.0016722993
47	0x3cac6c8a	0.02104785
48	0xbd8624cb	-0.065499865
49	0xbddafa90	-0.10692322
50	0x3cef871b	0.029239228
51	0xbba94617	-0.005165826
52	0xbc8da514	-0.01729063
53	0xbddc9c48	-0.10771996
54	0x3d4e2781	0.050330643
55	0x3d80621e	0.06268714
56	0x3d2f2bd3	0.042766403
57	0x3c25d678	0.010121934
58	0xbdf2d656	-0.118572876
59	0xba956663	-0.0011398311
60	0xbb822555	-0.0039717355
61	0xbc77b253	-0.015118199
62	0xbd14bb59	-0.03631148
63	0xbbf93092	-0.007604667
64	0xbb03fa00	-0.0020138025
65	0x3d8a7e16	0.0676233
66	0x3d7bd4b6	0.061482154
67	0x3d9c1b73	0.07622423
68	0x3d62630e	0.055270247
69	0xbd55df77	-0.052215066
70	0xbdb47a10	-0.08812344
71	0x3e074141	0.13208486
72	0xbc94ae0d	-0.0181494
73	0x3d3066ea	0.043066896
74	0xbc52ef18	-0.012874387
75	0x3d84a160	0.06476092
76	0x3c3c82cb	0.011505793
77	0x3d0b7873	0.034050416
78	0xbd09ed56	-0.033673607
79	0xbcb80a14	-0.022465743
80	0xbda3092f	-0.07960736
81	0x3b6f3143	0.0036497868
82	0x3c945764	0.018108077
83	0xbdfee3fe	-0.1244583
84	0x3c2db106	0.010601288
85	0x3d5dc799	0.05414543
86	0x3d937e62	0.0720184
87	0x3c9956ef	0.018718211
88	0x3ce88129	0.0283819
89	0x3acc2868	0.0015576007
90	0xbe39e1cd	-0.18152542
91	0x3a903e71	0.0011004937
92	0x3d9362bb	0.07196566
93	0x3cebd988	0.02879025
94	0x3d350442	0.044193514
95	0x3e10463d	0.14089294
96	0x3d129ded	0.03579514
97	0x3d1e11e5	0.038591284
98	0xbe8cc18d	-0.27491418
99	0xbd2cc3b8	-0.04217884
100	0xbda6bead	-0.08141837
101	0x3cb4a644	0.022051938
102	0xbd285c1b	-0.041103464
103	0xbd6b0056	-0.057373367
104	0xbb98d52c	-0.004664084
105	0xbbedbf64	-0.0072554816
106	0xbd589fa5	-0.052886624
107	0x3b8c00f2	0.0042725736
108	0xbd3ff7fc	-0.046867356
109	0xbe4a6eb0	-0.19768786
110	0x3d05eb89	0.032695327
111	0x3b68a98c	0.0035501448
112	0x3bd19e9f	0.006397083
113	0x3c96bd62	0.018400852
114	0x3ca5c00a	0.020233173
115	0x3cd84483	0.026399856
116	0x3d57866f	0.05261844
117	0xbe76c5e2	-0.24098924
118	0xbca63dfc	-0.020293228
119	0x3e801ace	0.2502045
120	0x3d771c59	0.06032977
121	0x3bd5e8c2	0.006527991
122	0xbd787fdc	-0.06066881
123	0x3cf3bbe8	0.029752687
124	0xbe2f9d93	-0.17149954
125	0xbdace2c4	-0.084416896
126	0x3d99135b	0.07474395
127	0x3d49a863	0.04923285
128	0xbc4899f6	-0.012243738
129	0x3c3b5564	0.011433933
130	0xbd5a97c2	-0.053367384
131	0x3c5f5a16	0.013632318
132	0x3c7a6e7a	0.015285129
133	0x3d0d4ee5	0.034499068
134	0xbc96d52d	-0.018412197
135	0x3d35c3d3	0.044376206
136	0x3d5865e4	0.052831545
137	0xbc0de927	-0.008661545
138	0x3cbc072d	0.02295264
139	0xbe82764a	-0.25480872
140	0x3d296e29	0.041364823
141	0xbd42dfed	-0.047576834
142	0x3d56002c	0.052246258
143	0x3d10179f	0.035178777
144	0x3cedc7ae	0.029025879
145	0xbdae24d8	-0.08503121
146	0x3d88fcaa	0.06688817
147	0xbaf64b7a	-0.0018790804
148	0xbd626246	-0.055269502
149	0xbd84dadb	-0.06487056
150	0xbb1de8ad	-0.0024094984
151	0xbc80b46a	-0.015711028
152	0x3d218bea	0.039440073
153	0x3d072670	0.03299564
154	0x3d9dd664	0.077069074
155	0x3c66805b	0.014068688
156	0x3d429528	0.047505528
157	0xbd44da69	-0.048059855
158	0x3d6333fc	0.055469498
159	0xbcf9e0be	-0.030502673
160	0xbd91e4c4	-0.07123712
161	0x3d6023c4	0.05472161
162	0x3d8e58ff	0.069505684
163	0x3d8865a2	0.0666001
164	0x3c5e7da6	0.013579762
165	0xbc18a34e	-0.009316279
166	0xbd208419	-0.03918848
167	0xbd4d63c8	-0.050143987
168	0x3d96d587	0.07364946
169	0x3d845551	0.06461585
170	0xbb18e0e9	-0.0023327416
171	0x3d58f98b	0.052972358
172	0x3d1c902d	0.038223434
173	0x3d8cb576	0.068705484
174	0xbca5cff7	-0.020240767
175	0x3c4d9a5f	0.012549012
176	0x3d24242e	0.040073566
177	0xbe2ae942	-0.16690543
178	0xbd638984	-0.055551067
179	0xbd3dfc99	-0.046383474
180	0x3c3477e4	0.011014912
181	0xbe53eb8b	-0.20695321
182	0xbd0bb97d	-0.034112442
183	0xbe37186c	-0.1788041
184	0xbd81eda9	-0.06344158
185	0xbcbf7fac	-0.023376308
186	0xbc4b3d04	-0.012404684
187	0x3d686831	0.05673999
188	0x3d974556	0.07386272
189	0xbbe24b45	-0.0069059455
190	0xbd168a5c	-0.036753044
191	0x3c260a8a	0.010134349
192	0xbcc6a30a	-0.024247665
193	0xbd3b32a3	-0.045702588
194	0xbb93629c	-0.004497839
195	0x3cede8a6	0.0290416
196	0x3e38ec25	0.18058832
197	0x3d32284f	0.043495473
198	0x3c42708a	0.011867652
199	0x3d63673a	0.055518366
200	0xbd4f58f4	-0.05062194
201	0xbcf2c0e8	-0.029633
202	0xbd8031b0	-0.06259477
203	0xbd90c2ce	-0.07068406
204	0x39f92aac	0.00047524774
205	0xbd5a9381	-0.053363327
206	0x3ab27965	0.0013616501
207	0xbb5dc00f	-0.00338364
208	0xbd27ec9b	-0.04099713
209	0xbde845f0	-0.113414645
210	0xbcef2345	-0.029191623
211	0x3cfe5622	0.03104693
212	0xbc8e159f	-0.017344294
213	0xbd6c094a	-0.057626046
214	0xbbf46c2f	-0.0074591856
215	0x3c7ad3a6	0.01530925
216	0x3d7d1e71	0.06179661
217	0xbd369996	-0.044580065
218	0x3d11f7dc	0.035636768
219	0xbe235b10	-0.15952706
220	0x3d41fe79	0.047361825
221	0x3d9b2eae	0.07577263
222	0xbd6ec591	-0.058293883
223	0xbd3b0c86	-0.04566624
224	0xbcd1c46d	-0.025606358
225	0x3c6b2eb1	0.014354394
226	0xbd376af3	-0.04477973
227	0x3dcb49d4	0.09926191
228	0xbc03e0bb	-0.008049185
229	0x3d74dbc7	0.05977991
230	0xbd6e830c	-0.058230445
231	0xbd1075d3	-0.035268616
232	0xbd4073d4	-0.046985462
233	0xbe98216c	-0.29713
234	0x3db69266	0.08914642
235	0xbe1f9917	-0.15585743
236	0xbd6a9171	-0.05726761
237	0xbc86d064	-0.01645679
238	0xbe90bcb1	-0.2826896
239	0xbdc0120d	-0.09378443
240	0xbd8e4efa	-0.06948657
241	0x3d834d64	0.064112455
242	0xbd8e06e8	-0.06934911
243	0x3d468108	0.048462898
244	0xbdab1f7b	-0.08355614
245	0xbe105490	-0.14094758
246	0xbe83c161	-0.25733474
247	0xbd662aea	-0.05619327
248	0x3d88992a	0.06669839
249	0x3d417b70	0.04723686
250	0x3d65d46f	0.056110796
251	0x3cfbb6e2	0.030726854
252	0x3c987927	0.018612457
253	0x3d57a01a	0.05264292
254	0xbd3e9df2	-0.046537347
255	0x3d8e509c	0.06948969

f2.bias f4 [256]
0	0x3d689537	0.056782927
1	0xbd5463ec	-0.051853105
2	0x39a81a4d	0.00032063053
3	0xba195915	-0.0005849761
4	0x3d13e21b	0.036104303
5	0xbd6aee52	-0.057356186
6	0x3da8c686	0.0824099
7	0x3c19350e	0.009351028
8	0x39e87e94	0.00044344796
9	0x3d7782d9	0.06042752
10	0x3ca4f061	0.020134153
11	0x3d6070d2	0.054795094
12	0xbd83f07e	-0.064423546
13	0x3ce1dfdd	0.027572567
14	0xbb51a280	-0.0031987727
15	0xbd3dc686	-0.046331905
16	0x3e0ce5e1	0.13759567
17	0x3cb7005c	0.022339039
18	0x3c20a125	0.009804045
19	0x3db5a1f9	0.088687845
20	0x3d31ce12	0.043409415
21	0x3dff23c5	0.12457994
22	0x3d8dc440	0.06922197
23	0x3e015982	0.12631801
24	0x3d25368b	0.04033522
25	0xbd37e673	-0.044897508
26	0x3c4394c6	0.011937326
27	0xbd22d0e9	-0.039750014
28	0x3c9ab0f3	0.018883204
29	0xbd654249	-0.055971418
30	0x3d490717	0.049079027
31	0x3d3e43f3	0.04645152
32	0x3d612d0c	0.0549746
33	0xbb3eb643	-0.0029100336
34	0xbbdccfbe	-0.006738632
35	0x3de30a77	0.110859804
36	0x3cce69a3	0.025196856
37	0x3d184a30	0.037180126
38	0x3d7e7898	0.062126726
39	0x3d24cc08	0.040233642
40	0x3c5b2155	0.013374646
41	0xbd09ae45	-0.033613462
42	0x3ddf3e94	0.10900608
43	0xbb9498cd	-0.004534817
44	0xbc723217	-0.01478245
45	0xbc821341	-0.015878322
46	0x3cf5c00d	0.029998804
47	0x3dbad1ff	0.09122085
48	0xbceeaffc	-0.02913665
49	0x3c681430	0.014164969
50	0x3d354092	0.044251032
51	0x3dcad3f1	0.09903706
52	0x3c911ddd	0.017714435
53	0x3c33f6a8	0.0109841
54	0x3df5a2c1	0.119939335
55	0xbd8405ec	-0.06446442
56	0x3d9acc21	0.07558466
57	0x3dff8b06	0.124776885
58	0x3d29a7de	0.041419856
59	0x3dbd1726	0.09232931
60	0xbc813342	-0.015771512
61	0x3d647e53	0.055784535
62	0xbc448474	-0.01199447
63	0xbd8bbcb9	-0.06823105
64	0x3d027743	0.031852018
65	0xbc96b10d	-0.018394971
66	0xbc23d135	-0.009998609
67	0x3d23f44e	0.04002791
68	0x3c7474a5	0.014920388
69	0x3c687138	0.01418715
70	0xbd9863ab	-0.07440885
71	0xbd1155b8	-0.03548214
72	0x3d30d469	0.04317132
73	0x3dd9ae59	0.10628957
74	0x3cae9669	0.021311956
75	0x3c4ad2a1	0.012379319
76	0xbd0480ac	-0.032349274
77	0xbc96d717	-0.01841311
78	0x3d0646ab	0.032782238
79	0xbcbc094d	-0.022953654
80	0x3df95dc9	0.12176091
81	0x3d4da822	0.050209172
82	0xbdb9c461	-0.090706594
83	0x3e0d3f18	0.137936
84	0x3d848a63	0.06471708
85	0x3bec1c2d	0.0072055073
86	0xbad84b18	-0.0016501872
87	0xbd6b4c9a	-0.0574461
88	0x3c62c560	0.013841003
89	0x3ce05012	0.02738193
90	0xbc863545	-0.016382823
91	0xbce258ac	-0.027630173
92	0x3da80bc3	0.08205368
93	0x3ce931d6	0.028466146
94	0x3d23cae8	0.03998843
95	0x3db4d38d	0.088294126
96	0xbba575b2	-0.0050494308
97	0xbd52fd23	-0.05151094
98	0x3d6d0204	0.05786325
99	0x3dc3ce62	0.09560849
100	0x3d8d779e	0.06907581
101	0xbd045cdf	-0.03231513
102	0xbd2b1731	-0.041770164
103	0x3c884bbb	0.016637674
104	0x3d526c33	0.051372718
105	0xbd3c4a1d	-0.045969117
106	0x3cffe8c9	0.03123893
107	0xbbd3caea	-0.006463398
108	0xbc6a5438	-0.014302306
109	0xbc8f4ed1	-0.017493637
110	0x3d896243	0.06708195
111	0xbca6f1c9	-0.020378964
112	0xbd3a1fae	-0.04544037
113	0x3d31a322	0.043368466
114	0xbd603286	-0.054735683
115	0x3d120863	0.03565253
116	0xbd0b7049	-0.03404263
117	0x3d7b7167	0.061387446
118	0xbd85d2cb	-0.06534346
119	0xbd83673d	-0.064161755
120	0x3da17df7	0.07885354
121	0xbd60db5c	-0.054896697
122	0x3da9c4f3	0.08289518
123	0x3d12018e	0.035646014
124	0x3ce53a49	0.027981894
125	0xbd38bb16	-0.045100294
126	0xbd822e47	-0.06356483
127	0x3dbda29c	0.09259531
128	0x3cf9bd9c	0.03048592
129	0xbd6a38d9	-0.05718312
130	0x3d3840cd	0.044983674
131	0x3c872eb1	0.016501756
132	0x3d36a971	0.044595186
133	0xbc09b5c7	-0.0084051555
134	0x3db9b35a	0.09067412
135	0xbd88f71d	-0.06687758
136	0x3c8c07cf	0.017093567
137	0x3c7fc503	0.015610936
138	0x3dc40480	0.09571171
139	0xbd02f2c9	-0.03196982
140	0xbcd33e38	-0.025786504
141	0x3d597cb0	0.053097427
142	0xbb685e7f	-0.0035456715
143	0xbb87391e	-0.004126682
144	0xbd850fdb	-0.06497165
145	0x3d0c8bab	0.034312885
146	0xbd398f7c	-0.045302853
147	0x3d28eeeb	0.041243475
148	0xb881f140	-6.196136e-05
149	0xbcc580d0	-0.024109274
150	0x3d3cc99a	0.0460907
151	0xbd4b85a8	-0.04968801
152	0x3df415ae	0.119181976
153	0x3c61faba	0.013792688
154	0x3dc6262e	0.09675251
155	0x3dcc81fc	0.0998573
156	0x3da3dea4	0.0800145
157	0x3d73c3b0	0.059512794
158	0x3ddba6e0	0.10725188
159	0xbc967cf7	-0.018370135
160	0x3c9a8dca	0.018866438
161	0x3d705f89	0.05868486
162	0x3d11a08d	0.035553504
163	0xbce0485c	-0.027378254
164	0xbc601023	-0.013675722
165	0x3d8d4265	0.068974294
166	0x3d4e6077	0.050384965
167	0x3d2aad52	0.041669197
168	0xbcf6d590	-0.030131131
169	0x3ddabf43	0.106810115
170	0x3d473ba2	0.048640855
171	0xbc4c85a5	-0.012483035
172	0x3c7b9f9b	0.015357877
173	0xbc6d648e	-0.014489306
174	0xbc410e36	-0.011783173
175	0xbc266e77	-0.010158173
176	0xbd6e9504	-0.05824758
177	0xbcc3ca5e	-0.023900207
178	0xbc00b479	-0.007855528
179	0x3d335de1	0.0437907
180	0xbc60da27	-0.013723887
181	0x3c7b789f	0.0153485825
182	0x3d934359	0.0719058
183	0xbcadd88f	-0.021221427
184	0xbbef1976	-0.0072967364
185	0x3df0756a	0.11741145
186	0x3d1958f9	0.037438367
187	0xbc852049	-0.016250746
188	0xbc332fd7	-0.010936699
189	0x3de631a1	0.11239935
190	0x3ddc8c3b	0.10768934
191	0xbd7841b4	-0.060609534
192	0x3d95e6d2	0.07319416
193	0xbbcbfed9	-0.0062254486
194	0x3c89a071	0.016800137
195	0x3d744691	0.05963761
196	0x3db0c048	0.08630425
197	0x3db3414b	0.08752688
198	0x3d5c8246	0.053835176
199	0x3d307d32	0.043088146
200	0xbd94b551	-0.07261146
201	0xbca58440	-0.020204663
202	0x3a8e277b	0.0010845506
203	0x3d13263e	0.035925142
204	0x3c9f8ab7	0.019475324
205	0xbc1be0a6	-0.00951401
206	0x3db42ab0	0.087972045
207	0x3dbac935	0.091204084
208	0xbbc0f0a2	-0.0058880607
209	0x3dca0de4	0.09865931
210	0x3d4f9862	0.050682433
211	0xbd17588b	-0.036949676
212	0xbc8faf24	-0.017539568
213	0x3cb88c79	0.02252792
214	0xbb59122e	-0.0033122408
215	0x3d48a0e6	0.04898157
216	0x3d266dbb	0.04063199
217	0x3d4b18c4	0.049584165
218	0x3a8af437	0.0010601346
219	0x3c218651	0.009858684
220	0x3cab7c7b	0.02093338
221	0xbd6a5db0	-0.057218254
222	0x3cb3098b	0.021855136
223	0x3d83a71c	0.06428358
224	0x3d637dc7	0.055539872
225	0x3dd9515c	0.10611221
226	0xbc4ce704	-0.01250625
227	0xbc2bf890	-0.010496274
228	0xbd000234	-0.0312521
229	0x3db4cc8f	0.08828079
230	0x3d94fbda	0.072745994
231	0xbce076e1	-0.027400436
232	0xbc90d5e7	-0.017680122
233	0x3ce8936f	0.028390614
234	0xbcf581ac	-0.029969059
235	0xbcf81940	-0.030285478
236	0x3d2b2bfc	0.041789994
237	0xbcd8eb85	-0.026479492
238	0x3e0acba3	0.13554244
239	0xbd6d8ae1	-0.057993773
240	0x3d5c78d9	0.053826187
241	0x3c3e34ad	0.011609239
242	0x3d846e3a	0.064663365
243	0x3d15cb4f	0.036570843
244	0xbd25ddfe	-0.04049491
245	0x3d5c68c0	0.053810835
246	0x3dfcf64c	0.12351665
247	0x3dc4cda1	0.09609533
248	0x3d08ff59	0.033446644
249	0x3dbb6fa0	0.0915215
250	0xbc8fa559	-0.017534899
251	0x3d2c3703	0.04204465
252	0x3d469fc7	0.04849222
253	0x3dbb34df	0.09140944
254	0xbd638f4f	-0.05555659
255	0x3c1f2d7d	0.009715435

val.weight f4 [1, 256]
0	0x3d6511fe	0.05592536
1	0xbd64ce28	-0.05586067
2	0x3b9d0374	0.0047916714
3	0x3db84a0a	0.08998497
4	0x3d800c58	0.062523544
5	0xbd3787da	-0.044807293
6	0x3dd24c4f	0.10268461
7	0xbc9af5ec	-0.018916093
8	0xbd1e5201	-0.038652424
9	0x3d646fbf	0.055770632
10	0x3db89d34	0.09014359
11	0xbc05bba9	-0.008162417
12	0xbd1e06a7	-0.038580563
13	0xbd52377c	-0.051322445
14	0x3c748420	0.014924079
15	0x3cc92884	0.024555452
16	0x3e010d3f	0.12602709
17	0xbd28050e	-0.041020446
18	0x3d474687	0.048651244
19	0x3dc0e80b	0.09419259
20	0x3d9da4a0	0.07697415
21	0x3de2d7b7	0.110763006
22	0x3d1e9f73	0.03872628
23	0x3d8a2440	0.067451954
24	0x3c3845c8	0.011247106
25	0xbcc0ab3a	-0.023519147
26	0x3c5f629f	0.013634353
27	0x3cf688df	0.030094562
28	0x3ce57b6d	0.028012956
29	0xbcad9e98	-0.021193787
30	0xbb83b6b9	-0.004019585
31	0xbd498559	-0.049199436
32	0xbd6f3b85	-0.05840637
33	0x3c8a1ac0	0.016858459
34	0x3ce3c506	0.027803909
35	0x3dd16f9f	0.10226368
36	0x3d7d16ff	0.06178951
37	0x3df4524e	0.11929761
38	0x3d6e6fb5	0.058212
39	0x3c4972c0	0.012295425
40	0xbd525df5	-0.051359136
41	0x3b81210c	0.003940707
42	0x3df32f9f	0.118743174
43	0x3dc6994d	0.096972086
44	0x3d549d09	0.051907573
45	0xbc014075	-0.007888903
46	0x3d7b77bb	0.06139348
47	0x3d37090c	0.044686362
48	0xbce7c3f0	-0.028291672
49	0xbd4fa2d9	-0.050692413
50	0xbcf0b406	-0.029382717
51	0x3d9850e0	0.07437301
52	0x3d90c02a	0.070679024
53	0x3c7c9650	0.015416697
54	0x3dbcb115	0.09213463
55	0xbd4d421b	-0.05011187
56	0x3dfbcf31	0.12295378
57	0x3e0680a9	0.13135017
58	0xbd03ec20	-0.03220761
59	0x3dafb628	0.085796654
60	0xbcd661c0	-0.026169658
61	0xbbfed1af	-0.007776461
62	0x3cf72948	0.030171052
63	0x3bbcf635	0.005766655
64	0xbd219736	-0.039450847
65	0x3d89ab69	0.06722147
66	0xbcb814aa	-0.02247079
67	0xbd61b957	-0.055108394
68	0xbb9e4f20	-0.00483121
69	0xbd158996	-0.036508165
70	0xbc87b814	-0.016567267
71	0x3d5c897c	0.053842053
72	0xbd14703d	-0.03623985
73	0x3dc4d102	0.096101776
74	0xbc7cb798	-0.015424632
75	0x3d5dbe79	0.054136727
76	0x3d0e7f2a	0.03478924
77	0xbb92e6c1	-0.0044830744
78	0x3ddfb5fa	0.10923381
79	0x3b7b9a2b	0.0038391452
80	0x3dcc733d	0.099829175
81	0x3ad4bab0	0.0016229954
82	0xbd29080b	-0.041267436
83	0x3de7ae5e	0.11312555
84	0x3dfebef9	0.12438769
85	0xbc9645ca	-0.018343825
86	0x3d8a60e7	0.06756764
87	0x3bb67e99	0.005569291
88	0x3d3b8165	0.045777697
89	0x3bb880d9	0.005630594
90	0x3c8d12ac	0.017220818
91	0xbd1c81a5	-0.038209576
92	0x3d2629d5	0.040567238
93	0x3ca1e190	0.019760877
94	0x3dbff2ec	0.093725055
95	0x3d61f46a	0.055164732
96	0xbd194188	-0.03741601
97	0xbd15f333	-0.036608886
98	0xbcfa7d80	-0.030577421
99	0x3dbefc9a	0.09325524
100	0xbc9ac65b	-0.018893411
101	0xbd10bd6f	-0.035336908
102	0x3c7b9a24	0.015356574
103	0x3d879953	0.06621041
104	0xbc7fb171	-0.01560627
105	0xbc8ebfdb	-0.017425468
106	0xbd311c74	-0.043240026
107	0xbcdad510	-0.026712924
108	0x3d32d1ea	0.04365722
109	0x3cbc4482	0.022981886
110	0x3d91933f	0.07108163
111	0xbd4bf5a5	-0.04979481
112	0x3d339ef8	0.043852776
113	0x3dbf4675	0.093396105
114	0xbccff08c	-0.025383256
115	0x3ddacebf	0.10683965
116	0xbd110671	-0.035406534
117	0xbbb06220	-0.005382791
118	0xbd965c59	-0.07341833
119	0x3cd6b120	0.026207507
120	0x3d1c96c1	0.038229708
121	0xbbb38475	-0.0054784366
122	0x3de0b93c	0.10972831
123	0x3d8d7aed	0.06908212
124	0x3d179e69	0.037016306
125	0xbc762590	-0.015023604
126	0xbd04782e	-0.032341175
127	0x3dc3684a	0.09541376
128	0xbc98d959	-0.018658327
129	0xbd510523	-0.05103029
130	0x3def9d6c	0.11699948
131	0xbd5cfe80	-0.053953648
132	0x3dba0902	0.09083749
133	0xbd068f72	-0.032851644
134	0x3debe986	0.115191504
135	0xbd34811a	-0.044068433
136	0x3e040b93	0.1289504
137	0xbc8ec74e	-0.01742902
138	0x3d5d8c00	0.054088593
139	0xbd4769bf	-0.04868483
140	0x3d016fb1	0.031600658
141	0x3de6bd6e	0.112665996
142	0xbd167bd1	-0.036739174
143	0xbc1ee162	-0.00969729
144	0x3c045ebb	0.008079226
145	0x3df511a7	0.119662575
146	0xbcb63bb1	-0.02224526
147	0x3d2efe76	0.04272314
148	0xbda0937c	-0.078406304
149	0xbd30831e	-0.043093793
150	0x3dea487b	0.11439606
151	0xbd65d860	-0.056114554
152	0x3dabea02	0.08394243
153	0xbd574983	-0.05256034
154	0x3d5db8aa	0.054131187
155	0x3dcfc3ff	0.10144805
156	0x3d7d2d3c	0.061810717
157	0x3adfd0fb	0.0017075831
158	0x3da00241	0.0781293
159	0xbd9c78b5	-0.076402105
160	0xbd990d6e	-0.07473265
161	0x3dd9c7c2	0.10633804
162	0x3a8e0869	0.0010836247
163	0x3cf20ac8	0.029546157
164	0xbc731bd7	-0.0148381805
165	0x3da5c632	0.080944434
166	0x3c72e9c0	0.014826238
167	0x3ded1e0b	0.11577996
168	0xbcdd873e	-0.027042028
169	0x3dfd46aa	0.12366994
170	0xbd411221	-0.04713643
171	0x3d83e718	0.06440562
172	0xbc74528f	-0.014912262
173	0xbd11880a	-0.035530128
174	0x3d5bd765	0.053672213
175	0xbab478a2	-0.0013768862
176	0xbdb7c402	-0.089729324
177	0x3d0059ed	0.03133576
178	0x3d8c77f4	0.06858817
179	0xbaa8be8f	-0.0012874174
180	0xbd27db60	-0.040980697
181	0xbd857b19	-0.0651762
182	0x3de95caf	0.11394631
183	0xbd593258	-0.053026527
184	0x3d287e5b	0.041136127
185	0x3db9fe61	0.09081722
186	0xbc8ca2be	-0.017167445
187	0xbcdee151	-0.027207049
188	0xbdb7f00c	-0.08981332
189	0x3df01c87	0.11724191
190	0x3db8e6e6	0.090284154
191	0x3c7fc293	0.015610355
192	0x3d9bf985	0.076159514
193	0xbd748715	-0.059699137
194	0x3c16ea7d	0.00921118
195	0x3db9ee07	0.09078603
196	0x3de8a520	0.1135962
197	0x3d68564d	0.056722928
198	0x3c5b91b8	0.013401441
199	0x3d89663f	0.06708955
200	0xbd31ce07	-0.043409374
201	0x3c905952	0.017620716
202	0xbd282849	-0.041054044
203	0x3dba6385	0.09101013
204	0x3db208d8	0.08693093
205	0xbcf3d929	-0.029766636
206	0x3df4edeb	0.11959442
207	0x3dfc1e15	0.12310425
208	0x3d35dd22	0.04440034
209	0x3ded2a0b	0.11580285
210	0xbc8684d0	-0.016420752
211	0x3cc039aa	0.023464996
212	0xbd68efaf	-0.056869205
213	0x3ca39be9	0.019971805
214	0x3d1a4f8c	0.037673518
215	0x3d063916	0.032769285
216	0x3d65884c	0.056038186
217	0x3dcf6013	0.101257466
218	0xbc53c20c	-0.012924682
219	0x3c316028	0.010826148
220	0x3dde8a1c	0.10866186
221	0x3c350210	0.011047855
222	0xbd29df02	-0.041472442
223	0xbc86a717	-0.016437097
224	0x3dda0061	0.106446035
225	0x3da3ec4f	0.08004057
226	0x3d0e22e8	0.034701258
227	0x3c1868e8	0.009302355
228	0xbd9ad1df	-0.07559561
229	0x3dd08b21	0.10182787
230	0x3df9a46e	0.121895656
231	0xbd167098	-0.03672847
232	0x3c4393e3	0.011937114
233	0xbd23b147	-0.039963987
234	0xbd2e0e66	-0.0424942
235	0xbd9a3f39	-0.0753159
236	0xbcd34842	-0.025791291
237	0x3c21ad79	0.009868019
238	0x3df6922f	0.12039601
239	0xbd64ac9d	-0.05582868
240	0xbc4ce7ba	-0.01250642
241	0xbd800122	-0.06250216
242	0x3cc52c0b	0.024068853
243	0xbb93f12d	-0.0045148344
244	0xbd52e82e	-0.051490955
245	0x3d4e0fce	0.05030804
246	0x3d849bc0	0.064750195
247	0x3dec53c2	0.11539413
248	0xbd08ce23	-0.033399712
249	0x3d997d29	0.074945755
250	0xbd6a3b52	-0.05718548
251	0x3de60375	0.11231128
252	0xbd579f1b	-0.05264197
253	0x3d80a9d6	0.06282394
254	0xbdf935ac	-0.1216844
255	0x3d396a0b	0.045267146

adv.weight f4 [3, 256]
0	0x3ca15e56	0.019698303
1	0xbd67d764	-0.056601897
2	0xbcc8bee5	-0.024505088
3	0xbd57d027	-0.052688744
4	0x3c59c016	0.013290426
5	0xbcaf6b00	-0.021413326
6	0xbd2b0059	-0.04174838
7	0xbd7121c9	-0.05887011
8	0xbcc31547	-0.023813857
9	0xbd1bbbe2	-0.038020976
10	0xbc74d7aa	-0.014943996
11	0x3cb46c32	0.022024248
12	0x3d0314a2	0.0320021
13	0xbd012314	-0.031527594
14	0x3d2bd55a	0.041951515
15	0x3d723308	0.0591307
16	0x3c469029	0.012119331
17	0xbd0d43a0	-0.03448832
18	0xbc259543	-0.010106388
19	0xbcc8519e	-0.02445298
20	0xbda27e40	-0.079342365
21	0x3ca56e8c	0.020194314
22	0xbd6e18dc	-0.058129176
23	0xbd1fc79a	-0.039008714
24	0x3d02fae9	0.031977568
25	0xbc6106c9	-0.013734528
26	0x3bd2508d	0.006418294
27	0x3cc2cfe9	0.02378078
28	0xbd0feb58	-0.03513655
29	0x3d139124	0.03602709
30	0xbc103abd	-0.008803067
31	0xbd96fb56	-0.07372157
32	0x3d0f07f8	0.03491971
33	0xbba1de88	-0.004939858
34	0x3b7c7ef7	0.0038527825
35	0x3cf8f897	0.030391974
36	0xbd58e542	-0.052953012
37	0x3d0f6367	0.035006907
38	0x3b76ba57	0.0037647688
39	0x3bda26e0	0.0066574663
40	0xbb90aba6	-0.0044149933
41	0xbb3de82f	-0.0028977504
42	0x3cb47574	0.022028662
43	0xbd8bd850	-0.06828368
44	0x3c70e84b	0.01470382
45	0x3d709cef	0.058743414
46	0xbc95bc96	-0.018278401
47	0xbd6d9a32	-0.05800838
48	0xbdb140e4	-0.08654955
49	0x3c9ac651	0.018893393
50	0xbd992ed7	-0.07479637
51	0x3d08a664	0.033361807
52	0x3c337117	0.010952256
53	0xbce5a3e8	-0.028032258
54	0xbc3395a9	-0.010960975
55	0xbd9dece5	-0.077112
56	0x3c415c06	0.011801725
57	0xbd7859fe	-0.0606327
58	0xbd2aba7f	-0.041681763
59	0xbcef3041	-0.029197814
60	0xbd458290	-0.048220217
61	0xbd5c1ec2	-0.05374027
62	0xbd1c6190	-0.03817898
63	0x3ca2658b	0.01982381
64	0xbc5dcce5	-0.01353762
65	0xbd9c83c9	-0.076423235
66	0x3d60363f	0.054739233
67	0xbcf55e87	-0.0299523
68	0x3d2822de	0.041048877
69	0xbc3b3d89	-0.011428245
70	0xbc70b672	-0.014691936
71	0x3d838186	0.06421189
72	0xbd13ee46	-0.036115907
73	0xbca09e18	-0.019606635
74	0xbcf94673	-0.0304291
75	0xbdaf5ac8	-0.08562237
76	0xbc876745	-0.016528735
77	0xbc6aa869	-0.014322379
78	0xbcb64fe6	-0.022254895
79	0xbd98a1e9	-0.07452757
80	0x3bacc718	0.0052727573
81	0x3d95723e	0.072971806
82	0xbbb59b96	-0.005542229
83	0xbc8eab95	-0.017415801
84	0xbd9a9d93	-0.07549586
85	0xbdb864d3	-0.09003606
86	0xbd1618e0	-0.036644816
87	0x3d55f026	0.052230977
88	0x3da3cd38	0.07998127
89	0xbd81921f	-0.063266985
90	0xbcae92b9	-0.021310197
91	0xbd5ea28a	-0.054354228
92	0xbd8b94b9	-0.06815476
93	0xbd01fccf	-0.031735238
94	0xbc05a20b	-0.00815631
95	0xbd7b4f31	-0.06135482
96	0xbb9c8561	-0.004776642
97	0x3d0b1f6d	0.033965517
98	0x3d477712	0.04869754
99	0x3c2e12dc	0.010624614
100	0x3deda7b2	0.11604251
101	0xbce903a6	-0.028444123
102	0xbcf4984a	-0.029857773
103	0xbd352536	-0.04422494
104	0xbc974880	-0.018467188
105	0x37ed7d3e	2.8310922e-05
106	0xbc8a1fef	-0.01686093
107	0x3d185dae	0.037198715
108	0x3aa09400	0.0012251139
109	0xbc9dd160	-0.019264877
110	0xbcf4865d	-0.029849226
111	0xbd7410c0	-0.059586287
112	0xbd6790ca	-0.056534566
113	0xbd715fae	-0.058929138
114	0xbc98e006	-0.01866151
115	0x3d7a512f	0.06111258
116	0xbc8621a9	-0.016373472
117	0xbce9d582	-0.028544191
118	0x3c7b42e3	0.015335771
119	0xbd29adf9	-0.04142568
120	0x3d78bb69	0.060725603
121	0xbd96677d	-0.073439576
122	0xbd525af3	-0.051356267
123	0xbd14611b	-0.03622542
124	0xbd49340a	-0.049121894
125	0x3d2b7512	0.041859694
126	0x3d3aae26	0.045576237
127	0xbc304ad0	-0.010760024
128	0x3d1bb210	0.03801161
129	0x3cc0fef9	0.02355908
130	0x3cbef894	0.02331189
131	0x3bcfb949	0.0063392264
132	0x3d5f74f9	0.054554913
133	0xbb12d603	-0.0022405393
134	0xbcacfaa4	-0.021115609
135	0xbd9905bd	-0.074717976
136	0xbd8479a1	-0.064685114
137	0xbce69f20	-0.028152049
138	0xbc61e34f	-0.013787105
139	0x3cd37adf	0.025815425
140	0x3c244f22	0.010028632
141	0xbd481c19	-0.04885492
142	0x3b60a7e6	0.0034279763
143	0xbce3d93d	-0.027813548
144	0xbd67db34	-0.056605533
145	0xbcd2cb19	-0.02573161
146	0xbdde214b	-0.10846194
147	0x3d3e39ce	0.046441846
148	0xb9b56139	-0.00034595447
149	0x3cf50618	0.029910132
150	0x3d6e6e72	0.058210798
151	0xbd09e512	-0.033665724
152	0xbca8c732	-0.020602796
153	0xbdb22630	-0.0869869
154	0xbd06e281	-0.032930855
155	0x3baa0847	0.005188975
156	0xbd16440c	-0.03668599
157	0x3ae85390	0.0017725099
158	0x3bad41fd	0.0052874074
159	0x3d96e4f0	0.07367885
160	0xbd3973eb	-0.045276564
161	0xbccf7d0d	-0.025328184
162	0x3bf1feb7	0.0073851007
163	0x3d271ac2	0.040797003
164	0xbd02dcc9	-0.03194884
165	0x3d85fc1c	0.06542227
166	0xbd670e34	-0.05641003
167	0xbcbbea1b	-0.022938779
168	0xbd454633	-0.04816265
169	0xbcec26c2	-0.028827075
170	0xbd58c789	-0.052924667
171	0xbd853cf5	-0.06505767
172	0x3d0d9837	0.03456899
173	0x3d325b36	0.043544017
174	0x3adc69bd	0.001681618
175	0xbcebd402	-0.028787617
176	0xbd3bf2b9	-0.045885775
177	0xbb0c9ae3	-0.0021454624
178	0xbd0f10db	-0.034928184
179	0x3d84da8c	0.06486997
180	0xbc685210	-0.0141797215
181	0x3d278f3d	0.040908087
182	0xbd59f23b	-0.053209525
183	0xbc41d895	-0.011831422
184	0x3ba15950	0.004923977
185	0x3ce5b441	0.028040053
186	0xbcb468dc	-0.022022657
187	0x3d2560f6	0.040375672
188	0xbcc6eb6c	-0.02428218
189	0xbd164d4a	-0.036694802
190	0x3d68c9e2	0.056833155
191	0x3d6d7309	0.057971034
192	0x3cc17b1b	0.023618272
193	0x3c8be264	0.017075725
194	0xbd55bcb7	-0.052181926
195	0xbd8ff6fc	-0.070295304
196	0xbd6c7cb4	-0.057736114
197	0xbd10924a	-0.035295762
198	0x3d322a40	0.043497324
199	0xbbab2535	-0.0052229413
200	0xbcf86e58	-0.030326054
201	0xbd866809	-0.06562812
202	0xbd569da8	-0.052396446
203	0x3d2bc500	0.04193592
204	0x3b5ddcc9	0.0033853522
205	0x3cbd8ea8	0.023139313
206	0xbd581668	-0.052755743
207	0x3ce577ff	0.02801132
208	0xba3a538b	-0.0007107786
209	0xbc13e864	-0.009027574
210	0xbcd18700	-0.025577068
211	0xb95e516d	-0.00021201903
212	0x3c934f6f	0.017982213
213	0xbb6a1832	-0.0035719988
214	0x3c492db0	0.012278959
215	0xbc465170	-0.012104377
216	0x3d50916c	0.050919935
217	0x3d3fa611	0.046789233
218	0xbcabe21a	-0.020981837
219	0xbcd365ea	-0.025805432
220	0xbb932a0a	-0.0044910954
221	0xbc9cc340	-0.019136071
222	0xbd913b89	-0.070914336
223	0xbd294002	-0.04132081
224	0xbd16e031	-0.0368349
225	0xbb6ecf84	-0.0036439607
226	0xbd2a31f7	-0.041551556
227	0xbcb76ee8	-0.022391751
228	0x3beaaea8	0.007161934
229	0x3ab7c3cc	0.0014020144
230	0xbb967565	-0.0045916312
231	0x3ca2f92b	0.019894203
232	0x3cb52f9b	0.022117427
233	0x3ce25e34	0.02763281
234	0x3d7effe0	0.06225574
235	0x3bb1bea0	0.0054243356
236	0xbd931792	-0.0718223
237	0xbd7bb71a	-0.061453916
238	0x3d2165a0	0.039403558
239	0xbd3cdd19	-0.046109293
240	0x3d4d5781	0.05013228
241	0xbcef447a	-0.029207457
242	0x3db4b1f3	0.088230036
243	0x3d4a66b5	0.049414355
244	0xbc92e9a9	-0.017933683
245	0xbd5c6493	-0.053806853
246	0xbc80e245	-0.015732894
247	0xbc5d85b7	-0.01352065
248	0x3d32e1a7	0.04367223
249	0x3c2be1a9	0.010490813
250	0xbd20510e	-0.0391398
251	0x3cfee01c	0.031112723
252	0x3cc6f1af	0.024285166
253	0x3bed05a2	0.0072333375
254	0xbb4bf1d8	-0.0031119492
255	0x3d626283	0.05526973

adv.bias f4 [3]
0	0x3c671c95	0.014105936
1	0x3ade9131	0.0016980526
2	0xbd63c2c2	-0.055605657
