Epi-47263.pth (torch, 277155 bytes, 7 tensors)

f1.weight f4 [256, 6]
000000 5b 85 c8 be 68 84 3e be 8e 95 2a 3e 5b 66 7d 3e
       -0.39164242 -0.18605196 0.16658613 0.24746077
000010 5f c3 6e be b2 e3 aa be b1 af 51 3e 02 67 63 3e
       -0.23316716 -0.33376843 0.20477177 0.22207263
000020 1f e3 78 3e 9b a9 aa 3e 83 6a 22 be 30 58 94 3d
       0.2430539 0.33332524 -0.15860943 0.07243383
000030 e3 26 2b be 8e db 89 be 24 51 66 be f7 5e 54 3e
       -0.16714053 -0.2692532 -0.2249189 0.20739351
000040 d1 9a 9a be 5d 06 d3 3e e5 7a 2a 3e c3 03 a6 be
       -0.3019624 0.41215792 0.16648443 -0.32424745
000050 2c 9e a4 bc c0 0e 00 be b0 72 b7 be 81 31 5e 3e
       -0.020094953 -0.12505627 -0.35829687 0.21698572
000060 d5 4d a6 be 78 92 85 be 66 c3 d6 3c 57 bb c2 3e
       -0.32481256 -0.2608831 0.02621622 0.38033554
000070 20 dc 8e 3d 26 7f 75 3d 36 0a 30 be 83 1e a4 be
       0.06975579 0.05993571 -0.17191395 -0.3205453
000080 b9 29 a5 3e 6d a5 97 3d 0d bf 82 3d 74 a1 a8 3e
       0.32258394 0.07404599 0.06384096 0.3293568
000090 b4 49 83 be 0d a3 8c 3d 66 9e a3 be 3e 49 e1 bb
       -0.2564217 0.06867037 -0.31956786 -0.006875186
0000a0 4a a9 7b 3e c6 54 70 3e 58 74 42 3d 09 3c 49 be
       0.24576297 0.23469839 0.047474235 -0.19651808
0000b0 21 de ec 3d 25 72 b0 3d fb 6e 3a be 9c 0f a1 3d
       0.11565805 0.08615521 -0.18206398 0.078643054
0000c0 9e a6 ae be 54 58 04 be 3a df 99 3e 5f 84 1c 3e
       -0.34111494 -0.1292432 0.3005312 0.1528487
0000d0 56 46 1d be 87 2e ce bc ad d4 8e 3e 2d 8e 41 be
       -0.15358862 -0.02516867 0.27896634 -0.18901892
0000e0 60 5e d1 bc 2e e5 23 be 58 f8 fd 3e 42 01 b3 3c
       -0.025557697 -0.16005394 0.49603534 0.021851186
0000f0 88 27 9f 3e 1e 6d 4c 3e ac 37 98 be 59 01 fe 3e
       0.31084847 0.199635 -0.29729974 0.49610403
000100 e8 7c 6a bd 51 c0 48 3e b1 89 1f 3d 8b 48 d4 be
       -0.057248026 0.19604613 0.038949672 -0.41461596
000110 ab 48 d8 3c b2 44 b3 3e ed 69 4d bd 67 e7 37 3c
       0.026401838 0.35013348 -0.050149847 0.011224604
000120 c2 14 9a be 72 02 9b 3e 3d c6 26 be 86 08 69 bd
       -0.30093962 0.30275303 -0.1628656 -0.056892894
000130 cd 95 a0 3e 3a a8 a0 3d 14 ba 43 bd 45 96 8c be
       0.3136429 0.07844587 -0.04778488 -0.27458397
000140 ab 65 a3 bd 4e 57 ce be bd f0 ac be b4 af 89 3c
       -0.07978376 -0.40300983 -0.3377742 0.016807415
000150 81 51 9f be 01 57 56 be 5a 19 be 3e 50 5a a9 be
       -0.3111687 -0.20931627 0.37128717 -0.33076715
000160 cb 15 36 3d 17 4a a7 be ef 4d aa 3e 71 ee 2e 3d
       0.044454377 -0.32673714 0.33262584 0.042707864
000170 5b 48 3f 3e e4 fd b9 3e 1e ea 9b be 25 56 6f 3d
       0.18679945 0.36326516 -0.30452055 0.058431763
000180 67 8f f8 bd a1 5e ac 3e 59 30 0e be ec ef 9a be
       -0.12136727 0.33665946 -0.1388563 -0.3026117
000190 be 02 12 3d 6a e4 e9 bd bd 9c c4 3e bf 6f d7 3e
       0.035647146 -0.1142052 0.38400832 0.42077443
0001a0 57 ce ac 3e d5 01 8d be 01 e4 7b be b7 8d 89 3c
       0.33751175 -0.2754046 -0.24598695 0.016791208
0001b0 46 85 95 3e 07 73 2f 3e 0f 8b a3 3e ec 16 bf 3e
       0.29203242 0.17133723 0.3194203 0.37322176
0001c0 35 76 5c 3e 2b 62 b7 3d cb 9c 03 3b ab 53 e9 bc
       0.21529467 0.08954271 0.002008247 -0.028482279
0001d0 d6 5d 31 bd 2a 12 93 3e 51 5a 81 bd 9f 53 b3 3e
       -0.04330238 0.28724796 -0.063160546 0.35024735
0001e0 7f 79 5a 3d 31 ef c2 3e 04 9d 3a be c9 9a ac be
       0.053338524 0.38073114 -0.18223959 -0.33711842
0001f0 e6 2b 87 bd ec 59 e1 bd 16 ce 49 3e 99 21 c8 be
       -0.0660017 -0.11003479 0.19707522 -0.39088133
000200 db 9f c7 bd 6d a1 c9 3e b0 3f 96 be d9 b9 b5 3d
       -0.09747287 0.3938097 -0.29345465 0.08873338
000210 3b 3a 8c 3e a6 2b de bd 74 04 84 be 11 6b 03 3e
       0.27388176 -0.10848169 -0.25784647 0.12833811
000220 96 94 57 be 6d 7e a8 be 0a 86 a4 bc f1 7b 70 bc
       -0.21052775 -0.32908955 -0.020083446 -0.014677987
000230 8c 10 96 be 65 7d 3a 3d 1a 53 11 3e d7 8e b9 3e
       -0.293095 0.04552974 0.14191857 0.3624179
000240 71 bb 2f be 92 ef e9 3d 1c 8e b1 be 0e ce cb 3e
       -0.17161347 0.114226475 -0.34678733 0.39805645
000250 03 53 1a be 71 3e d2 3c dc 74 99 3e 48 eb 75 bc
       -0.15070729 0.02566454 0.2997197 -0.015009709
000260 f6 14 8d be 74 03 5a be de fa 7c be 6c 23 7e be
       -0.27555054 -0.2129038 -0.24705073 -0.248182
000270 0f 55 7d 3e c4 89 55 3d a6 ac fd bd 06 d3 fc bd
       0.24739479 0.052133337 -0.12386446 -0.12344937
000280 8c ea 27 3e 23 ab 4c 3b 10 d4 d8 be 62 80 6d be
       0.16398066 0.0031229935 -0.4234929 -0.23193505
000290 74 d5 97 be 9b 42 e8 3e a0 7b 34 3e 20 49 4f be
       -0.2965504 0.45363316 0.17625284 -0.20242739
0002a0 58 e5 93 be 2e 3b 9a 3e d1 63 53 3c e1 7e 8b 3e
       -0.28885913 0.30123276 0.012902216 0.27245238
0002b0 55 d3 8f 3e da a1 bb be e7 fc 19 bd 46 1c e0 3d
       0.2809092 -0.3664692 -0.037594702 0.10942893
0002c0 f0 ea 26 3e 4e dc 6e be 1c 63 af 3d c9 ae 82 bd
       0.16300559 -0.23326227 0.085638255 -0.06380994
0002d0 f7 57 0a 3e 23 8d ac 3e 1c b1 2a be 7b c0 90 3e
       0.13510118 0.3370143 -0.16669124 0.2827185
0002e0 d5 c3 af bd bd ae 8c 3e 36 97 32 3e 7d ec 8c be
       -0.08582274 0.27477065 0.17440495 -0.27524176
0002f0 35 8d 05 3e 21 a8 b4 3e 1e 1f a9 3e 18 4a 9a 3e
       0.13042147 0.35284522 0.33031553 0.30134654
000300 58 d5 55 3c aa ba 75 3e 5b bb b6 3e e8 29 15 3c
       0.013051353 0.23996988 0.35689816 0.0091042295
000310 25 4a 3b be 59 3e b6 3d f1 2e 8c 3e 18 c0 6c be
       -0.18290003 0.088986106 0.27379563 -0.23120153
000320 f2 b9 9b bd dc c4 57 bd 9f 39 b8 3d 0d 48 8a be
       -0.07603826 -0.052677974 0.08995365 -0.27008095
000330 9e 18 82 be 19 ae 88 3c 2c 0e 1f 3e 68 30 c5 3e
       -0.25409406 0.016684579 0.1553275 0.38513494
000340 f1 bc 79 3e fa c5 aa 3d f2 4e 85 be 82 9c e8 bb
       0.24388482 0.08338542 -0.26036793 -0.0070987353
000350 c6 49 b3 3e f3 74 f4 bd 7c 7e 1d 3e e7 8c 1d 3d
       0.35017222 -0.11936369 0.15380281 0.038464453
000360 cc 37 98 be 03 f0 50 3e de 23 e8 3d 1f 9c 5b be
       -0.2973007 0.20404057 0.11334966 -0.21446274
000370 1f 4e 2b 3d b8 25 64 3e 23 34 35 bd 6a 6b 39 3e
       0.04182255 0.22280014 -0.044239175 0.18107381
000380 d1 82 a9 be ee 5c e5 3c 28 41 2f be b9 84 85 3e
       -0.33107617 0.027998414 -0.17114699 0.26077822
000390 2d 50 24 3e 10 46 45 be d8 9b da be 0c dc 60 bc
       0.1604621 -0.19265008 -0.42697024 -0.013724338
0003a0 97 cc 91 be e1 92 cb bc 5a 1e 7f 3d 7e 5d e5 be
       -0.28476402 -0.02485031 0.062284805 -0.4479789
0003b0 0c 82 7b be e3 0e 8c 3d db e3 90 3d 0c 24 14 be
       -0.24561328 0.06838777 0.0707471 -0.14466876
0003c0 f5 9e a2 be 05 e0 a9 be cd e3 00 be 54 52 ca bb
       -0.317619 -0.33178726 -0.12586899 -0.006174365
0003d0 8d 2d 8e be 80 32 d5 3d 80 14 5a 3e 49 54 13 be
       -0.27769127 0.10410023 0.21296883 -0.14387621
0003e0 f9 0e ad 3e e2 b9 86 be 03 00 86 be 33 a2 27 3e
       0.33800486 -0.26313692 -0.26171884 0.16370468
0003f0 a9 a6 bc be 1d af 87 3d f4 41 92 3e 88 af a9 3d
       -0.36845902 0.06625197 0.28565943 0.08285433

f1.bias f4 [256]
000000 b0 5d 38 be 95 50 bd 3e be eb ac 3e e0 a8 ef 3c
       -0.18004489 0.36975542 0.33773607 0.02925533
000010 03 c8 ba 3e f1 e0 e1 3e 0c 8b 76 3d c8 98 97 bc
       0.36480722 0.4411693 0.0601912 -0.018505469
000020 bf 50 7b be f7 eb 14 3e e7 22 27 bd da 2b 31 3e
       -0.24542521 0.14543138 -0.04080477 0.17301884
000030 eb ef 1c 3e 03 70 a5 be 42 8c e1 bc 3d 40 bf be
       0.15325896 -0.3231202 -0.0275327 -0.37353697
000040 b4 ce a0 3e 55 94 90 3e 51 a8 80 3e ae c1 ae be
       0.31407702 0.28238168 0.25128415 -0.3413214
000050 df 66 63 be d0 5c 23 3e 88 9c cb be 5c 75 b2 be
       -0.22207211 0.15953374 -0.3976786 -0.34855163
000060 98 18 fb bc 4f 15 9b bd 0d 0e 0b be c3 a5 10 3d
       -0.030651376 -0.07572424 -0.13579579 0.035314333
000070 76 b9 99 3e ec f2 55 3e ab 05 43 be ff af a3 bd
       0.30024308 0.20893449 -0.19045131 -0.07992553
000080 16 d1 71 be 96 6a c6 3e e1 7b c6 bd 33 16 2c 3e
       -0.23614916 0.38753194 -0.09691597 0.16805343
000090 d9 e9 d3 3e b1 b5 bf be 86 01 ac be 5e d2 3f 3e
       0.4138935 -0.37443307 -0.33594912 0.18732592
0000a0 53 cd b8 be b0 42 44 3d 23 ea 94 3e 3f e7 83 be
       -0.3609415 0.04791516 0.29084882 -0.25762364
0000b0 03 aa 4d 3e e3 b6 6e be d2 2e a1 bd e0 fe cc 3e
       0.20084386 -0.23311953 -0.078702584 0.40038204
0000c0 cb dc 80 3e 14 73 8b 3e 89 f9 a8 bc b0 15 20 3c
       0.25168452 0.27236235 -0.0206268 0.009770796
0000d0 b0 a5 88 be 72 55 3c 3e 5e c0 b2 be 0c 59 33 be
       -0.2668891 0.1839197 -0.3491239 -0.17514437
0000e0 f8 54 43 3e 1b 26 96 3e dd 95 1c 3d 26 bc be 3e
       0.19075382 0.29325947 0.03822886 0.3725292
0000f0 b9 ce ba 3e 8f 88 30 3c ef 32 f2 3c 28 61 83 3e
       0.36485842 0.010774746 0.029565303 0.25660062
000100 3a 07 c7 be b2 a8 8a 3e 7d 99 eb 3d 3b d7 6c 3e
       -0.388727 0.2708183 0.11503885 0.23128979
000110 e7 f7 28 bc 9c fc 6b 3e 2c 86 5d be d5 46 b8 3e
       -0.010313011 0.23045582 -0.21633214 0.3599154
000120 75 c0 77 be 5a b3 b6 3e f9 25 06 3e fc c4 e1 3e
       -0.2419451 0.3568371 0.13100423 0.440956
000130 b5 6a 9b 3e e3 db 0c 3d a2 24 38 3e b6 07 0c 3c
       0.30354849 0.034389388 0.17982724 0.00854676
000140 14 9e 05 be 11 b1 98 3e 18 b5 e9 3d 33 d5 7d bc
       -0.13048583 0.2982259 0.11411494 -0.015492725
000150 9b e7 32 be 9d 94 32 be a4 21 ea 3e aa 02 da 3e
       -0.17471163 -0.17439504 0.4572879 0.42580158
000160 23 47 6d be 46 48 64 3e 7d f8 98 bd 65 6f c6 3e
       -0.23171668 0.22293195 -0.074692704 0.38756862
000170 5b 8b a4 3d 67 6c 5d be 5c 46 46 3e a8 41 74 3d
       0.080343924 -0.21623383 0.19362777 0.059632927
000180 4b 15 63 be ca c7 83 bd ac 0c 95 3d 16 e6 b1 be
       -0.22176091 -0.06434591 0.072778076 -0.34745854
000190 4c 83 c8 3e 30 75 a6 3e 0d 73 88 3e 4c 74 71 3e
       0.39162672 0.32511282 0.26650277 0.2357952
0001a0 cb a5 01 3e ec 9b ef 3d 44 57 b4 3e f6 f5 9f 3e
       0.12660901 0.116996616 0.35222828 0.3124234
0001b0 d0 a3 bd 3e 49 81 5c 3c 34 ce a7 3e b6 ab ab 3e
       0.37039042 0.013458558 0.32774508 0.33529443
0001c0 25 a2 f9 bd a0 a5 12 3d db 43 8b 3d ed 43 91 be
       -0.1218913 0.035802484 0.06800052 -0.28372136
0001d0 f5 85 b7 be fb 21 8b bd fd 8c 8e bd 47 b9 04 3d
       -0.3584439 -0.06793591 -0.06960485 0.032403257
0001e0 e5 af 7f be f8 b3 a9 3e 6c e7 a2 be 8c 7f c9 be
       -0.24969442 0.33145118 -0.31817186 -0.39355123
0001f0 dd 4c b1 3c 80 6d 9b 3d 73 d8 86 3e 91 dc 61 be
       0.021643097 0.07589245 0.26337013 -0.22056796
000200 d4 40 b0 bd ee c4 e7 3e 2f 74 81 3e df 5f 65 3d
       -0.08606115 0.45267433 0.25283954 0.055999633
000210 2a ec 14 be e5 8e 6d 3e d0 65 69 3e 2e 05 c8 be
       -0.14543214 0.23199041 0.22792745 -0.39066452
000220 87 2f 99 3e 81 58 29 3e d3 16 5c 3e 0c b2 1e 3e
       0.29919073 0.16537668 0.21493082 0.15497607
000230 58 5d bc 3e 3c b2 55 3e ca 85 f4 3e 8d 99 e4 3e
       0.36789966 0.20868772 0.47758323 0.446484
000240 38 5f ab 3e 50 59 a2 be 39 61 eb 3e c0 14 a4 3d
       0.33471084 -0.31708765 0.45972613 0.0801177
000250 21 10 56 3e 89 3a 8c be ac eb f7 3e eb ee 8c 3e
       0.2090459 -0.2738841 0.4842199 0.2752603
000260 70 57 7c be 0e 48 e5 bd 00 3c 43 3e 20 33 2e 3e
       -0.2464273 -0.11195384 0.19065857 0.1701169
000270 d5 05 13 3e 0f b9 e7 3e 2d fc 16 be 88 09 e4 3e
       0.14357693 0.45258376 -0.14744635 0.44538522
000280 3c dd b5 3e ab 15 fe bd 77 a7 82 3d 6b 1d 7b be
       0.3552035 -0.124064766 0.06379598 -0.24522941
000290 ab 85 b2 3e 3e 36 cf 3e 01 0e 08 be e8 f4 a8 be
       0.34867606 0.4047107 -0.13286592 -0.3299935
0002a0 57 b9 07 be db a4 6d 3d 2f ab 87 be d8 7a 7d 3e
       -0.13254295 0.058018547 -0.2649779 0.24753892
0002b0 20 a1 e5 3e c0 af 8e bd 41 9f c7 3e 9d f5 9d be
       0.4484949 -0.069671154 0.3898869 -0.3085145
0002c0 d8 73 1f 3e f4 f3 9b 3e fe ee e5 3d 86 82 89 be
       0.15571535 0.3045956 0.11227225 -0.26857394
0002d0 fc 82 ad be a5 81 77 3e 38 8f 16 3e b7 5a 79 be
       -0.33888996 0.24170549 0.14703071 -0.24351011
0002e0 98 81 94 3e dc bb d3 bd 06 88 2e bd 0d 32 f9 3d
       0.29005122 -0.10338566 -0.04261019 0.121677496
0002f0 d8 7a 63 be af 9d a3 be d3 5a a3 be 88 ee e1 3e
       -0.2221483 -0.3195624 -0.3190523 0.44127297
000300 2b 16 cf 3e 59 92 d6 be 4b fa d8 3d 40 22 79 3c
       0.404466 -0.4190853 0.105946146 0.01520592
000310 05 cf 02 3d 2a 49 dc 3d 15 2c 8f 3e 12 c4 d0 be
       0.03193571 0.107561424 0.2796332 -0.4077459
000320 7b d5 8f be ff cb 7d bc 46 9b 33 be 93 7d 84 3e
       -0.2809256 -0.015490531 -0.17539701 0.25877056
000330 11 45 7b be f4 ee ae 3e 60 d0 0a 3d 19 cb 37 3c
       -0.24538065 0.34166682 0.033890128 0.011217856
000340 b2 9c a0 3e cb 14 21 bd b6 be a2 3e 8c b0 a8 3e
       0.3136955 -0.03932647 0.31786126 0.32947195
000350 1b 5b 87 3e 99 97 98 3e de 40 92 3e c8 25 da 3e
       0.26436695 0.2980316 0.28565115 0.4260695
000360 5e 76 27 be 87 25 92 be dc 26 ae be 3a d6 6d be
       -0.16353747 -0.28544256 -0.34014022 -0.23226252
000370 09 e9 d8 3e 43 da af 3e 5b 2e d5 be 4b 82 9d 3d
       0.42365292 0.34346208 -0.4163693 0.07690867
000380 56 e6 91 3e 0e 63 c1 be d7 4b 9d be 62 a1 a6 3e
       0.28496045 -0.37770885 -0.30721924 0.32545
000390 42 12 dc 3e 4d fb d1 3e 63 9d 92 be e9 4c f5 3e
       0.4298268 0.4101204 -0.28635702 0.4791024
0003a0 c4 a6 ae 3e e0 90 38 3d 91 3f 9b 3e b5 93 87 be
       0.34111607 0.04506004 0.30321935 -0.2647988
0003b0 b7 75 88 be 2c 7a 1e be d0 82 eb 3d fe 87 d0 be
       -0.2665231 -0.15476292 0.1149956 -0.40728754
0003c0 e9 13 71 be d5 1a c4 3e 09 b1 33 be 35 f4 1c be
       -0.23542751 0.3830172 -0.17548002 -0.15327533
0003d0 d0 a9 2e 3e 74 e0 a3 be f9 8c cf 3d 2a a2 ce be
       0.17056966 -0.32007182 0.1013431 -0.40358096
0003e0 62 02 ec 3b f3 70 d5 3e 90 23 ec 3c ff d3 d7 3e
       0.0072024325 0.41687736 0.028825551 0.42153928
0003f0 6a e7 b1 bd 66 b6 59 3e d6 9e 0d be 6a 29 40 3e
       -0.08686717 0.21260986 -0.13830122 0.18765798

f2.weight f4 [256, 256]
000000 1b 35 c3 bd d8 9c a3 bd 6c 98 04 bd d7 cb 06 3d
       -0.095316134 -0.079889 -0.032371923 0.03290924
000010 25 03 2a 3b 15 2b d0 3c 51 2e 8b bc 4c 30 6d 3c
       0.0025941816 0.025411168 -0.016989859 0.014476847
000020 02 2b 6d bd 4d 44 f5 bc c1 d8 13 bc 28 f4 01 3d
       -0.057902344 -0.029939795 -0.009023846 0.031726986
000030 be 6d 97 bc 80 0f a3 bc c5 05 29 be 5f 77 8f bd
       -0.018484946 -0.019904852 -0.16506107 -0.0700519
000040 a1 cc 00 3d f8 a8 4c be 58 92 2e bc e6 b5 d5 bc
       0.03144515 -0.19986331 -0.010655008 -0.026087712
000050 50 98 b6 bd 28 49 a8 3d c4 45 e3 3c c4 dd f9 bc
       -0.0891577 0.082170784 0.027743228 -0.030501254
000060 91 e5 92 bb a1 2b 1a 3b 40 41 76 bc b0 75 1e 3c
       -0.004482933 0.002352454 -0.015030205 0.009671614
000070 e7 f2 bb bd c4 b1 23 bc 0e 0b b2 bd dc d2 7b bd
       -0.09177189 -0.009991113 -0.08693515 -0.061480388
000080 e2 59 8b bd 9a 24 86 3d 67 f4 1d be 7a 00 c6 bc
       -0.06804253 0.0654995 -0.15425263 -0.02417015
000090 a2 74 74 bd 7e 5b 98 3d 37 25 75 bc 59 d2 bd 3c
       -0.059681542 0.07439326 -0.014962486 0.02317159
0000a0 f2 ae 5f 3d e1 2e dd 3c 2f a7 35 bb 6e 7e ca bd
       0.0546102 0.026999893 -0.0027718057 -0.09887396
0000b0 93 21 10 bd 31 3b 8f 3b f0 58 1b bb 18 27 a1 3c
       -0.03518827 0.00437107 -0.0023704134 0.019671962
0000c0 60 ee 7a bd e1 ad d2 bd 3c 0e e1 3c f3 68 db bb
       -0.06126249 -0.10287071 0.027472608 -0.0066958605
0000d0 14 a5 8d bc 2d ec dc bd 3d 1d 5b 3d 56 e0 86 3d
       -0.01729063 -0.107872345 0.05349468 0.065857574
0000e0 67 38 2b 3d dc 2d 17 3c 33 15 ec bd 24 53 18 bb
       0.041801836 0.009227242 -0.11527481 -0.0023242915
0000f0 2a 3b a8 bb bf 9f 31 bc 4c ba 0b bd f5 05 0f bc
       -0.005134006 -0.010841309 -0.034113213 -0.008729448
000100 00 fa 03 bb 43 14 88 3d c7 92 74 3d 57 24 9a 3d
       -0.0020138025 0.066444896 0.05971029 0.075264625
000110 53 13 5c 3d a6 47 5d bd 8b 99 b7 bd bb 7d 01 3e
       0.053729367 -0.054023407 -0.08964833 0.12645619
000120 86 09 96 bc 10 fc 28 3d ea 7e 6c bc 81 7c 81 3d
       -0.018315088 0.04125601 -0.014434556 0.06322575
000130 ed ae 29 3c fa 42 15 3d bc 87 0e bd 13 98 c3 bc
       0.010356647 0.036440827 -0.034797415 -0.023876226
000140 21 c0 9c bd c6 3f 47 3b 64 57 94 3c 0f 38 f7 bd
       -0.07653833 0.0030403002 0.018108077 -0.12071239
000150 ef 97 8f 3c ed a1 56 3d 45 48 90 3d a5 a0 90 3c
       0.017528502 0.05240052 0.07045034 0.017654726
000160 ec 72 e0 3c 68 37 4b ba c4 02 29 be b8 85 d0 b9
       0.027398549 -0.00077520916 -0.16504961 -0.0003977248
000170 8b 31 8f 3d 87 73 07 3d 7b 90 33 3d a0 2e 0e 3e
       0.069918714 0.03306916 0.04383896 0.13884974
000180 ed 9d 12 3d 5b 6b 38 3d f6 e4 86 be 49 1d 22 bd
       0.03579514 0.045024257 -0.26346558 -0.03957871
000190 ef 6b a8 bd f4 d9 b2 3c e1 96 2e bd 4f fd 6d bd
       -0.08223712 0.021832444 -0.042624358 -0.058102902
0001a0 6d fd b7 bb da ab ff bb fd 9d 53 bd 7c 36 31 3b
       -0.0056149275 -0.0078024687 -0.05166434 0.0027040532
0001b0 31 35 4c bd d0 c5 49 be 36 06 03 3d fc 76 e1 3a
       -0.049855415 -0.19704366 0.031988345 0.0017201598
0001c0 f3 76 3c 3c e0 fb 99 3c 01 bd 95 3c 2f 36 e5 3c
       0.011502969 0.018796861 0.0182786 0.027979938
0001d0 1f 6b 52 3d e5 58 6a be 8a ee af bc 0b 5a 7b 3e
       0.05137169 -0.22885473 -0.021476049 0.24546067
0001e0 62 36 76 3d 2a 95 96 3b dc 7f 78 bd 6f a5 e6 3c
       0.060110457 0.0045954185 -0.06066881 0.028155057
0001f0 26 58 2f be 87 b9 ac bd f4 14 96 3d 3f 25 49 3d
       -0.1712347 -0.08433824 0.07328215 0.049107786
000200 65 05 46 bc b2 c8 1e 3c cb 43 59 bd 9f 6c 47 3c
       -0.012086247 0.009691404 -0.053043168 0.012171893
000210 84 bb 67 3c 9d 58 0c 3d a2 bb a6 bc 81 dd 38 3d
       0.014143828 0.034264196 -0.020353142 0.045133118
000220 44 29 57 3d cd cf 06 bc 0f 30 b2 3c 61 7f 7c be
       0.05252959 -0.0082282545 0.021751432 -0.24657966
000230 ed 71 21 3d f8 7b 4c bd 8c 1a 52 3d 29 c0 00 3d
       0.03941529 -0.049922913 0.05129485 0.03143326
000240 e0 a6 df 3c d5 8c a8 bd 63 98 86 3d b9 69 50 bb
       0.027301252 -0.082299866 0.06572034 -0.0031801297
000250 64 9e 62 bd d0 7d 87 bd 7d e0 6a bb e2 1e 86 bc
       -0.055326834 -0.06615794 -0.0035839372 -0.016372148
000260 fa b1 1c 3d 73 ee 05 3d 53 f6 9a 3d 67 38 61 3c
       0.03825567 0.032698106 0.07566514 0.0137463575
000270 90 3a 46 3d 84 f6 4b bd 7e 91 7b 3d ad 52 01 bd
       0.048395693 -0.049795642 0.06141805 -0.031572986
000280 b1 93 92 bd 97 bf 5c 3d ef a2 8b 3d 30 10 88 3d
       -0.07157076 0.05389365 0.068181865 0.066437125
000290 d3 d0 42 3c 0c c0 33 bc dc c4 1e bd 97 84 7f bd
       0.011890608 -0.0109710805 -0.03876196 -0.062382307
0002a0 07 1f 96 3d 53 6a 84 3d 78 af 15 bb fc 32 58 3d
       0.07330137 0.06465592 -0.0022840183 0.052782997
0002b0 cc 99 15 3d 9e 07 8a 3d fe d5 b1 bc 96 00 37 3c
       0.036523625 0.06739734 -0.021708485 0.011169573
0002c0 3b 42 1c 3d 4b a7 2a be ff 3a 64 bd 99 fc 3d bd
       0.0381491 -0.1666538 -0.055720326 -0.046383474
0002d0 38 08 5b 3c a4 11 51 be 7a a7 0f bd 11 13 3b be
       0.013368659 -0.20416886 -0.035071827 -0.18268992
0002e0 c5 e6 81 bd ac 7f bf bc 58 ec 4e bc 45 1d 6e 3d
       -0.06342844 -0.023376308 -0.012629591 0.058133382
0002f0 62 c9 97 3d a3 c8 cb bb 76 60 0e bd 52 3b 18 3c
       0.074114576 -0.006218986 -0.03475996 0.009291487
000300 4e 85 d1 bc 36 4c 2e bd 93 63 98 bb 1b 49 e4 3c
       -0.02557626 -0.04255315 -0.004650542 0.02786689
000310 8d 74 35 3e a6 70 2b 3d 71 45 2d 3c 3a 67 63 3d
       0.17720242 0.041855477 0.010575638 0.055518366
000320 e4 65 59 bd e8 c0 f2 bc 87 84 82 bd 7f 42 92 bd
       -0.053075686 -0.029633 -0.06372934 -0.071415894
000330 1d 6b 50 3a 52 0b 51 bd 2b ed 72 3b d8 7d f6 ba
       0.00079505314 -0.051036187 0.0037067633 -0.0018805815
000340 ff e4 28 bd 18 b3 d6 bd c7 7e f2 bc ae ca ed 3c
       -0.041234013 -0.10483378 -0.029601468 0.02902731
000350 87 b2 99 bc 56 64 6d bd 0a 45 0c bc 54 4e 66 3c
       -0.018761886 -0.057957016 -0.008561382 0.014056761
000360 ac 9b 7e 3d 1c 39 35 bd dc f7 11 3d bf 85 21 be
       0.06216018 -0.044243917 0.035636768 -0.15773676
000370 3f 5e 3d 3d 74 ee 98 3d 0f db 70 bd 86 0c 3b bd
       0.04623246 0.07467356 -0.05880266 -0.04566624
000380 ba 96 e4 bc 39 bb 43 3c 99 70 43 bd ac fa c6 3d
       -0.027903903 0.011946493 -0.047714803 0.097157806
000390 31 6c 25 bc 44 6e 6b 3d 0c 83 6e bd a9 5c 12 bd
       -0.010096596 0.057478204 -0.058230445 -0.0357329
0003a0 17 8b 44 bd 34 73 8f be 8c 90 b5 3d 8b a2 1c be
       -0.04798421 -0.2801758 0.08865461 -0.1529638
0003b0 92 c3 71 bd 41 28 64 bc 7d 99 8b be 5c df be bd
       -0.0590244 -0.013925613 -0.2726554 -0.09319946
0003c0 1a e1 90 bd e3 ca 7e 3d 50 b0 8d bd 08 81 46 3d
       -0.07074185 0.062205207 -0.069183946 0.048462898
0003d0 78 2a 9d bd b4 9e 0d be 60 d4 7c be 16 01 3d bd
       -0.07674116 -0.13830072 -0.2469039 -0.046143614
0003e0 53 b9 85 3d 2f d3 3a 3d 98 3d 61 3d fe 24 f2 3c
       0.065294884 0.045611557 0.05499038 0.029558655
0003f0 66 83 93 3c 4e c0 4f 3d 27 3b 35 bd e0 31 8c 3d
       0.018006992 0.050720505 -0.044245865 0.068454504

f2.bias f4 [256]
000000 dd 74 61 3d ec 63 54 bd 29 4c 90 ba 8d 2b aa ba
       0.05504309 -0.051853105 -0.0011009026 -0.001298295
000010 0a db 11 3d 52 ee 6a bd 9d 20 a7 3d 0e 35 19 3c
       0.035609283 -0.057356186 0.08160517 0.009351028
000020 fa 1e eb 39 7a 5e 73 3d 97 70 a1 3c d2 70 60 3d
       0.00044845772 0.05941627 0.019707007 0.054795094
000030 7e f0 83 bd 09 1b ee 3c 80 a2 51 bb 86 c6 3d bd
       -0.064423546 0.029065626 -0.0031987727 -0.046331905
000040 3c 05 0c 3e 5c 00 b7 3c 5c 98 2b 3c 1b 5b b3 3d
       0.13673872 0.022339039 0.010473337 0.08757611
000050 87 ca 2e 3d d2 3e fd 3d 57 72 8d 3d a2 80 00 3e
       0.042673614 0.12365498 0.06906574 0.1254907
000060 8b 36 25 3d 57 fc 32 bd ce a9 41 3c e9 d0 22 bd
       0.04033522 -0.04369768 0.01182027 -0.039750014
000070 f3 b0 9a 3c b4 f6 6c bd 27 a7 3e 3d c6 5f 40 3d
       0.018883204 -0.057852462 0.046546128 0.046966337
000080 0c 2d 61 3d 45 90 fc ba e2 bb d7 bb 62 4a e1 3d
       0.0549746 -0.001926907 -0.0065836767 0.110005155
000090 17 54 c7 3c 15 fe 14 3d 35 fd 76 3d 08 cc 24 3d
       0.02433209 0.036375124 0.06030007 0.040233642
0000a0 af 63 78 3c 45 ae 09 bd 22 dd dd 3d 2c 82 ae bb
       0.015160485 -0.033613462 0.10833193 -0.0053255763
0000b0 17 32 72 bc e2 4f 79 bc cf 1a 00 3d 81 2f b9 3d
       -0.01478245 -0.015216799 0.031275567 0.09042264
0000c0 e4 9f e6 bc 3e 1b 5c 3c 77 92 38 3d 03 ee c8 3d
       -0.028152414 0.013434229 0.045061555 0.09811022
0000d0 60 b5 88 3c a8 f6 33 3c c5 a7 f3 3d ec 05 84 bd
       0.016688049 0.0109841 0.11897234 -0.06446442
0000e0 6d 1d 99 3d cc 37 fd 3d 52 c4 2b 3d 41 0d bb 3d
       0.07476316 0.12364158 0.041935273 0.09133387
0000f0 42 33 81 bc 18 2d 68 3d 74 84 44 bc b9 bc 8b bd
       -0.015771512 0.05668363 -0.01199447 -0.06823105
000100 43 77 02 3d 0c 49 92 bc 8a 16 31 bc 73 e6 1d 3d
       0.031852018 -0.017857097 -0.010808596 0.03854985
000110 78 3e 3a 3c 63 6d 97 3c 22 b3 94 bd b8 55 11 bd
       0.011367433 0.018484777 -0.07260729 -0.03548214
000120 ce e5 31 3d d2 76 d7 3d 69 96 ae 3c c6 b4 38 3c
       0.04343205 0.1052071 0.021311956 0.0112735685
000130 ac 80 04 bd d7 70 8b bc b7 cd 03 3d 7b 2a bf bc
       -0.032349274 -0.01702158 0.032178607 -0.023335686
000140 a5 85 f8 3d 68 df 38 3d 0a df b8 bd b7 5c 0c 3e
       0.12134866 0.04513493 -0.09026916 0.13707243
000150 53 47 82 3d 86 96 dd 3b b2 8f 00 bb 9a 4c 6b bd
       0.0636126 0.0067623286 -0.00196169 -0.0574461
000160 a7 fb 50 3c 12 50 e0 3c cf 97 79 bc 05 d2 d8 bc
       0.012755311 0.02738193 -0.015233948 -0.026467333
000170 4b 15 a6 3d 12 0c e2 3c ca 14 20 3d 4c f4 b2 3d
       0.0810953 0.027593646 0.039082326 0.08738002
000180 f3 6b 26 bb bf 44 4c bd 04 02 6d 3d 2b 02 c2 3d
       -0.0025393933 -0.04987025 0.05786325 0.0947307
000190 bc 78 8e 3d 4b 8e 03 bd 31 17 2b bd f2 91 82 3c
       0.06956622 -0.032118123 -0.041770164 0.015938733
0001a0 55 d1 55 3d 1d 4a 3c bd c9 e8 ff 3c f3 62 96 bb
       0.052201588 -0.045969117 0.03123893 -0.0045894324
0001b0 38 54 6a bc d1 4e 8f bc 3e f8 89 3d c4 7d ad bc
       -0.014302306 -0.017493637 0.067368016 -0.021178134
0001c0 ae 1f 3a bd b4 d5 2d 3d fa a3 57 bd 79 b1 0e 3d
       -0.04544037 0.04244013 -0.052646615 0.03483722
0001d0 49 70 0b bd 21 b3 69 3d fc 1f 85 bd 3d 67 83 bd
       -0.03404263 0.057055596 -0.06500241 -0.064161755
0001e0 68 58 a0 3d 03 97 67 bd 2f 88 a7 3d c1 b9 0e 3d
       0.07829362 -0.0565405 0.08180272 0.034845117
0001f0 04 95 e2 3c 16 bb 38 bd 55 5d 7a bd c9 41 bc 3d
       0.027658947 -0.045100294 -0.061124165 0.09192235
000200 0e 91 e3 3c 4c c9 65 bd 2f 37 35 3d b1 2e 87 3c
       0.027779128 -0.056100175 0.04424208 0.016501756
000210 8b 9e 33 3d 0c 7b ce bb 03 77 b8 3d 7f 26 87 bd
       0.04385237 -0.0063012894 0.09007075 -0.065991394
000220 ef db 83 3c 03 c5 7f 3c f7 70 c2 3d c9 f2 02 bd
       0.016096083 0.015610936 0.094942026 -0.03196982
000230 e1 14 c7 bc 97 95 56 3d 93 55 33 bb 1e 39 87 bb
       -0.024301948 0.052388754 -0.0027364239 -0.004126682
000240 db 0f 85 bd 14 25 08 3d 7d 15 39 bd 06 a1 2e 3d
       -0.06497165 0.033238485 -0.04518651 0.042634033
000250 3e df 33 ba d0 80 c5 bc 3e c1 3a 3d a8 85 4b bd
       -0.0006861574 -0.024109274 0.045594446 -0.04968801
000260 07 4f f3 3d 77 92 64 3c 53 d4 c4 3d 74 48 ca 3d
       0.11880308 0.013950936 0.0961081 0.098771006
000270 12 0b a2 3d 69 a5 72 3d 76 cf dc 3d 41 22 b2 bc
       0.07912268 0.05923978 0.107817575 -0.02174485
000280 ca f0 a4 3c fb 05 6c 3d 8d a0 11 3d 5c 48 e0 bc
       0.020134348 0.05762289 0.035553504 -0.027378254
000290 23 10 60 bc 73 4d 8b 3d 2d 11 46 3d 1f f5 27 3d
       -0.013675722 0.06801882 0.048356224 0.04100525
0002a0 85 7b fa bc 8e 64 d8 3d a2 3b 47 3d 67 36 5d bc
       -0.030576477 0.10566054 0.048640855 -0.01350174
0002b0 56 8e 77 3c 91 40 49 bc c0 f2 36 bc 77 6e 26 bc
       0.015109619 -0.01228346 -0.011166275 -0.010158173
0002c0 01 35 70 bd 5e ca c3 bc b6 be 06 bc e1 5d 33 3d
       -0.0586443 -0.023900207 -0.00822418 0.0437907
0002d0 27 da 60 bc cd 3e 85 3c 71 b6 91 3d 2b 40 b7 bc
       -0.013723887 0.016265297 0.07114876 -0.022369465
0002e0 76 19 ef bb 2b 96 ee 3d b4 ad 20 3d 49 20 85 bc
       -0.0072967364 0.11649736 0.039228156 -0.016250746
0002f0 75 c1 24 bc d1 cc e3 3d a6 94 da 3d b4 41 78 bd
       -0.010055889 0.1112305 0.10672884 -0.060609534
000300 65 08 94 3d d9 fe cb bb 71 a0 89 3c 7c 30 71 3d
       0.07228164 -0.0062254486 0.016800137 0.05888413
000310 7d 8d ae 3d a9 5f b1 3d 46 82 5c 3d f2 ef 2f 3d
       0.085230805 0.08660824 0.053835176 0.04295344
000320 49 b2 90 bd db 6f c7 bc b9 20 61 3a 23 b1 11 3d
       -0.07065255 -0.024345329 0.0008587945 0.03556932
000330 b7 0b a0 3c a6 e0 1b bc 9c ff b2 3d e3 c1 b9 3d
       0.019536836 -0.00951401 0.0874016 0.09070184
000340 a2 f0 c0 bb d5 f7 c7 3d 62 98 4f 3d e7 9b 14 bd
       -0.0058880607 0.09764067 0.050682433 -0.036281493
000350 3e 94 8a bc 79 8c b8 3c 2e 12 59 bb e6 a0 48 3d
       -0.01691639 0.02252792 -0.0033122408 0.04898157
000360 bb 6d 26 3d 6e fe 46 3d e4 d1 8a 3b 51 86 21 3c
       0.04063199 0.048582487 0.0042364467 0.009858684
000370 70 3c a4 3c b0 5d 6a bd 8b 09 b3 3c 2e c9 83 3d
       0.02004835 -0.057218254 0.021855136 0.06434856
000380 3b 7c 61 3d d0 8b d8 3d 93 14 49 bc 90 f8 2b bc
       0.055050116 0.10573542 -0.012272972 -0.010496274
000390 4a a5 f8 bc d6 c4 b3 3d 43 b2 92 3d 0a 0e f9 bc
       -0.030352253 0.08777778 0.07162907 -0.030402202
0003a0 e7 d5 90 bc 53 e7 eb 3c ac 81 f5 bc d2 ec bf bc
       -0.017680122 0.028796827 -0.029969059 -0.023428354
0003b0 5a 5f 2b 3d 35 16 d7 bc 00 12 0a 3e 18 aa 6d bd
       0.04183898 -0.026255706 0.13483429 -0.058023542
0003c0 d9 78 5c 3d 63 20 3b 3c 43 9d 87 3d b1 69 1e 3d
       0.053826187 0.011421296 0.06621792 0.038675014
0003d0 fe dd 25 bd 14 2b 59 3d 7b 29 fb 3d d6 1a c3 3d
       -0.04049491 0.053019598 0.12263771 0.09526603
0003e0 81 1c 03 3d e8 3b bc 3d 59 a5 8f bc e5 97 28 3d
       0.032009605 0.09191114 -0.017534899 0.041160483
0003f0 c7 9f 46 3d 12 8e b9 3d f2 be 68 bd 7d 2d 1f 3c
       0.04849222 0.09060301 -0.056822725 0.009715435

val.weight f4 [1, 256]
000000 b6 6d 5d 3d 28 ce 64 bd 2f b3 4f 3b ab 93 b7 3d
       0.054059707 -0.05586067 0.0031692495 0.08963712
000010 46 4d 7e 3d da 87 37 bd bc 75 d1 3d ec f5 9a bc
       0.062085412 -0.044807293 0.10227534 -0.018916093
000020 8f 5b 24 bd c1 ff 61 3d be dc b7 3d a9 bb 05 bc
       -0.04012638 0.055175547 0.0897765 -0.008162417
000030 a7 06 1e bd 33 fe 34 bd 20 84 74 3c 84 28 c9 3c
       -0.038580563 -0.044187736 0.014924079 0.024555452
000040 6a 79 00 3e 0e 05 28 bd 36 dd 4d 3d ac b1 bf 3d
       0.12546316 -0.041020446 0.05025979 0.0936006
000050 31 41 9d 3d ab b2 e1 3d 97 70 1b 3d f8 6f 89 3d
       0.0767845 0.11020406 0.03794917 0.067108095
000060 c8 45 38 3c 89 2e c2 bc 4d b1 84 3c df 88 f6 3c
       0.011247106 -0.02370383 0.016197825 0.030094562
000070 6d 7b e5 3c 0b ae b1 bc 20 da c1 bb fe 69 3a bd
       0.028012956 -0.021689435 -0.005915895 -0.04551124
000080 85 3b 6f bd 5a 50 98 3c 3f 3d c6 3c 63 4b d0 3d
       -0.05840637 0.018593002 0.024199126 0.10170629
000090 9c 07 7c 3d 26 e0 f2 3d e9 63 66 3d c0 72 49 3c
       0.061530694 0.11859159 0.056247625 0.012295425
0000a0 c5 84 4c bd 0c 21 81 3b 37 f7 f1 3d 58 28 c6 3d
       -0.049931306 0.003940707 0.118147306 0.09675664
0000b0 09 9d 54 3d 31 ac f4 bb 11 32 82 3d 79 c2 35 3d
       0.051907573 -0.007466816 0.06357206 0.044374917
0000c0 fe 76 f3 bc 20 6c 47 bd cc 41 e3 bc d6 f1 96 3d
       -0.029719826 -0.0486871 -0.027741335 0.07370345
0000d0 a7 34 8f 3d 50 96 7c 3c 36 83 bb 3d 1b 42 4d bd
       0.069924645 0.015416697 0.09155886 -0.05011187
0000e0 bf b4 fa 3d cb 17 06 3e 38 28 ff bc 36 9d ae 3d
       0.12241506 0.13095014 -0.031147107 0.08526079
0000f0 c0 61 d6 bc ba 89 ce bb 48 29 f7 3c 35 f6 bc 3b
       -0.026169658 -0.0063030394 0.030171052 0.005766655
000100 36 97 21 bd ef f3 8a 3d 7d ec c1 bc a8 f2 59 bd
       -0.039450847 0.06784808 -0.023672337 -0.05320993
000110 18 2b 92 bb 5c 9e 13 bd cb 84 67 bc 7c 89 5c 3d
       -0.0044607036 -0.036039695 -0.014130781 0.053842053
000120 7d 4c 19 bd 23 d1 c3 3d 98 b7 7c bc a7 14 5e 3d
       -0.03742646 0.09561374 -0.015424632 0.054218914
000130 2a 7f 0e 3d e6 48 7d bb 89 c0 de 3d 0a 79 d4 3b
       0.03478924 -0.0038648187 0.10876567 0.0064841555
000140 49 a2 cb 3d 2e 46 03 3b bc 8a 1d bd c9 b7 e6 3d
       0.09943063 0.0020030844 -0.038462386 0.11265523
000150 93 d6 fd 3d 70 15 71 bc 25 cc 89 3d 99 7e b6 3b
       0.123944424 -0.014714584 0.067283906 0.005569291
000160 87 da 39 3d d9 80 b8 3b 64 d4 89 3c 76 9f 1b bd
       0.04537442 0.005630594 0.016824909 -0.03799387
000170 6d f4 29 3d 20 ae 9a 3c 03 84 bf 3d 8b c6 60 3d
       0.04149287 0.018881857 0.09351351 0.054876845
000180 15 48 18 bd e0 fe 12 bd 80 7d fa bc e6 ed bd 3d
       -0.037178118 -0.0358876 -0.030577421 0.09273891
000190 19 7e 9e bc 2f ce 05 bd 24 9a 7b 3c 89 38 87 3d
       -0.019347237 -0.032667335 0.015356574 0.0660258
0001a0 98 c1 70 bc db bf 8e bc 74 1c 31 bd 3a 8e cb bc
       -0.014694594 -0.017425468 -0.043240026 -0.024848092
0001b0 ea d1 32 3d 82 44 bc 3c 19 11 93 3d b2 66 4d bd
       0.04365722 0.022981886 0.071809955 -0.050146766
0001c0 f8 9e 33 3d 17 73 be 3d ce ff c0 bc 43 67 d9 3d
       0.043852776 0.092992954 -0.023559477 0.10615399
0001d0 71 06 11 bd cb a2 db bb 5c 46 93 bd 20 b1 d6 3c
       -0.035406534 -0.006702756 -0.07191154 0.026207507
0001e0 0d e3 1c 3d 55 12 bd bb 3e bd df 3d 69 7a 8d 3d
       0.03830247 -0.0057700076 0.10924767 0.069081135
0001f0 8a e0 16 3d 90 25 76 bc 10 b3 05 bd 39 34 c2 3d
       0.03683523 -0.015023604 -0.03264147 0.09482617
000200 9a bc a7 bc fa a1 4f bd 9e 85 ee 3d 80 fe 5c bd
       -0.020475674 -0.050691582 0.11646579 -0.053953648
000210 3d 9d b8 3d b2 bc f9 bc bc 4d eb 3d 75 89 2c bd
       0.09014366 -0.030485485 0.11489436 -0.042123277
000220 5d 67 03 3e 4e c7 8e bc 19 47 5c 3d bf 69 47 bd
       0.12832399 -0.01742902 0.05377874 -0.04868483
000230 6f 56 07 3d 27 eb e5 3d 2a bf 05 bd 62 e1 1e bc
       0.033041414 0.112264924 -0.03265301 -0.00969729
000240 bb 5e 04 3c 3a 27 f4 3d 2e 18 99 bc 88 48 37 3d
       0.008079226 0.119215444 -0.018688288 0.044746906
000250 de 7c 96 bd 1e 83 30 bd de 2e e9 3d 60 d8 65 bd
       -0.07348035 -0.043093793 0.11385892 -0.056114554
000260 67 7e ab 3d b8 8a 59 bd 9b 43 5d 3d f0 97 ce 3d
       0.08373719 -0.053110808 0.05401955 0.100875735
000270 a8 64 7b 3d f9 41 08 ba 97 3f a0 3d 07 29 97 bd
       0.06137529 -0.0005197819 0.07824629 -0.07380872
000280 a4 a7 96 bd 05 6d d8 3d 69 08 8e 3a c8 0a f2 3c
       -0.07356194 0.10567669 0.0010836247 0.029546157
000290 d7 1b 73 bc a1 6e a4 3d 77 74 64 3c 2c 81 ec 3d
       -0.0148381805 0.08028913 0.013943783 0.11548075
0002a0 f0 83 e4 bc cd 0c fc 3d 21 12 41 bd 60 12 83 3d
       -0.027894944 0.12307129 -0.04713643 0.06399989
0002b0 aa 02 89 bc 2f 44 07 bd 13 9e 3f 3d a2 78 b4 ba
       -0.016724903 -0.03302401 0.04678161 -0.0013768862
0002c0 4f 16 af bd ed 59 00 3d 93 d7 8b 3d 8f be a8 ba
       -0.08549177 0.03133576 0.06828227 -0.0012874174
0002d0 60 db 27 bd f9 58 73 bd 62 b1 e9 3d ce 32 55 bd
       -0.040980697 -0.059411023 0.11410786 -0.052050404
0002e0 5b 7e 28 3d e9 8a b8 3d a0 b7 86 bc 51 e1 de bc
       0.041136127 0.0901087 -0.016444981 -0.027207049
0002f0 f7 73 af bd 89 d1 ee 3d 10 4f b7 3d 93 c2 7f 3c
       -0.085670404 0.116610594 0.08950627 0.015610355
000300 7e 7f 9a 3d 15 87 74 bd 7d ea 16 3c ac 15 b9 3d
       0.075438485 -0.059699137 0.00921118 0.09037337
000310 a3 b7 e7 3d a3 7b 66 3d b8 91 5b 3c fc 3a 80 3d
       0.11314323 0.056270253 0.013401441 0.062612504
000320 0c 7b 31 bd 57 57 66 3c 45 92 12 bd 4a d4 b6 3d
       -0.043330237 0.014058909 -0.035784025 0.0892721
000330 af b6 b2 3d 29 d9 f3 bc b1 bf f5 3d d2 48 fb 3d
       0.087262504 -0.029766636 0.11999453 0.12269749
000340 22 dd 35 3d 34 d8 eb 3d d0 84 86 bc 89 60 c2 3c
       0.04440034 0.11515847 -0.016420752 0.023727672
000350 28 07 56 bd e9 9b a3 3c 8c 4f 1a 3d 16 39 06 3d
       -0.05225292 0.019971805 0.037673518 0.032769285
000360 4c 88 65 3d 84 0f ce 3d ea b7 1f bc 28 60 31 3c
       0.056038186 0.10061553 -0.009748438 0.010826148
000370 b8 56 dd 3d 10 02 35 3c 02 df 29 bd f3 2f 6a bc
       0.10807556 0.011047855 -0.041472442 -0.014293659
000380 66 59 d9 3d ae 29 a3 3d 70 6f 08 3d e8 68 18 3c
       0.106127545 0.07966934 0.0333094 0.009302355
000390 7c bd 93 bd ff 1e d0 3d f5 64 f8 3d 16 16 09 bd
       -0.07213876 0.10162162 0.12128631 -0.03346833
0003a0 e3 93 43 3c bc 62 20 bd 66 0e 2e bd 59 f8 93 bd
       0.011937114 -0.03915666 -0.0424942 -0.07225103
0003b0 a8 82 c5 bc 25 8b cc 3b 8b 4e f5 3d 72 b0 55 bd
       -0.024110153 0.0062421733 0.119778715 -0.052170224
0003c0 ba e7 4c bc d8 b3 7e bd dd 4c bf 3c fc 24 9c ba
       -0.01250642 -0.06218323 0.023352081 -0.0011912878
0003d0 2e e8 52 bd 89 bf 4c 3d 98 d5 83 3d c2 1f eb 3d
       -0.051490955 0.04998735 0.06437224 0.11480667
0003e0 eb 75 ee bc c7 2f 9a 3d 52 3b 6a bd 34 1e e5 3d
       -0.029108962 0.07528644 -0.05718548 0.111874014
0003f0 1b 9f 57 bd 25 29 7f 3d 6a f7 f0 bd 0b 6a 39 3d
       -0.05264197 0.062295098 -0.117659405 0.045267146

adv.weight f4 [3, 256]
000000 3b 6c aa 3c 64 d7 67 bd 2d 68 bb bc 92 85 54 bd
       0.020803561 -0.056601897 -0.022876823 -0.051885195
000010 63 7a 69 3c 00 6b af bc ef 17 27 bd c9 21 71 bd
       0.014250371 -0.021413326 -0.04079431 -0.05887011
000020 28 40 a5 bc 39 00 1a bd 47 fb 64 bc 32 6c b4 3c
       -0.020172194 -0.03759787 -0.013975925 0.022024248
000030 a2 14 03 3d 59 fa a0 bc 5a d5 2b 3d 08 33 72 3d
       0.0320021 -0.019650625 0.041951515 0.0591307
000040 4d 7b 57 3c a0 43 0d bd a3 1e 0d bc dc ca c1 bc
       0.013151956 -0.03448832 -0.008613261 -0.023656301
000050 86 35 a1 bd 18 78 ae 3c f0 ef 76 bd 10 e9 1c bd
       -0.07871537 0.0212975 -0.060287416 -0.038308203
000060 e9 fa 02 3d ee 6c 19 bc 32 dd d7 3b e9 cf c2 3c
       0.031977568 -0.00936435 0.006587648 0.02378078
000070 58 eb 0f bd 3e 19 1f 3d d3 b4 61 bc 7b 35 89 bd
       -0.03513655 0.038842432 -0.013776022 -0.06699654
000080 f8 07 0f 3d c8 16 32 bc 97 67 27 3b 8f f7 ff 3c
       0.03491971 -0.010869689 0.0025543922 0.031245975
000090 62 5d 56 bd 80 a6 12 3d 95 00 a5 3b e0 26 da 3b
       -0.05233515 0.035803318 0.00503547 0.0066574663
0000a0 b2 cf be 3a 2f e8 3d bb d6 17 bb 3c 66 fb 89 bd
       0.0014557748 -0.0028977504 0.022838514 -0.067374036
0000b0 4b e8 70 3c e1 70 7c 3d f0 3c c8 bc 40 ef 6c bd
       0.01470382 0.061631087 -0.02444312 -0.057845354
0000c0 d8 bc ab bd db 7a 86 3c 81 97 a5 bd c8 15 0c 3d
       -0.083856285 0.016416004 -0.08085538 0.03420046
0000d0 b3 86 42 3c e8 a3 e5 bc 00 0a 25 bc e5 ec 9d bd
       0.011872935 -0.028032258 -0.010073185 -0.077112
0000e0 f4 1e 52 3c a9 5f 75 bd 26 da 42 bd 99 0a e9 bc
       0.012824763 -0.05990568 -0.047571324 -0.028447436
0000f0 90 82 45 bd 52 b2 56 bd 90 61 1c bd 8b 65 a2 3c
       -0.048220217 -0.052416153 -0.03817898 0.01982381
000100 e5 cc 5d bc c3 7c 9c bd 49 b0 70 3d 93 09 f5 bc
       -0.01353762 -0.07640984 0.05876187 -0.029911792
000110 51 f4 30 3d 95 af 34 bc 77 0a 81 bc 86 81 83 3d
       0.04320175 -0.01102819 -0.01575206 0.06421189
000120 43 59 04 bd 30 fc 9a bc 73 46 f9 bc 20 82 b2 bd
       -0.03231169 -0.01891908 -0.0304291 -0.087162256
000130 45 67 87 bc 46 c2 58 bc 3c 71 b2 bc 42 67 96 bd
       -0.016528735 -0.013229912 -0.02178251 -0.073439136
000140 3e 76 cf 3b 2a f6 98 3d 2c 6e a4 ba fe 03 87 bc
       0.0063312342 0.07468827 -0.0012545041 -0.016481396
000150 1d 78 99 bd 0a d4 b6 bd b0 15 13 bd 26 f0 55 3d
       -0.07493613 -0.08927162 -0.035909355 0.052230977
000160 67 a7 a8 3d 1f 92 81 bd d9 dc a8 bc 78 5b 4d bd
       0.082350545 -0.063266985 -0.02061312 -0.05013606
000170 7a 07 8d bd 0c 59 09 bd a1 9e 09 bc 03 a5 7b bd
       -0.06886192 -0.033532187 -0.0083996365 -0.061436664
000180 72 3f a1 bb b3 bd 1f 3d 12 77 47 3d 8e 16 3c 3c
       -0.0049208933 0.03899927 0.04869754 0.011479987
000190 99 2a f4 3d 73 7e d5 bc 4a 98 f4 bc 74 74 32 bd
       0.11922187 -0.026061272 -0.029857773 -0.04356809
0001a0 49 e1 c9 bc 3e 7d ed 37 ef 1f 8a bc 44 55 2c 3d
       -0.024643557 2.8310922e-05 -0.01686093 0.042073503
0001b0 00 94 a0 3a 60 d1 9d bc b5 cb f2 bc 47 58 67 bd
       0.0012251139 -0.019264877 -0.02963815 -0.056480672
0001c0 ca 90 67 bd e3 78 6e bd e2 c5 12 bc 51 66 7e 3d
       -0.056534566 -0.058220755 -0.008958312 0.062109295
0001d0 a9 21 86 bc 77 b2 d7 bc d4 b3 a3 3c f9 ad 29 bd
       -0.016373472 -0.026330216 0.01998321 -0.04142568
0001e0 b7 3e 7e 3d 2c 72 95 bd 99 47 50 bd 0a 7b 16 bd
       0.06207153 -0.07297167 -0.05084953 -0.036738433
0001f0 b4 a3 4f bd 12 75 2b 3d 88 78 3e 3d 92 33 21 bc
       -0.05069323 0.041859694 0.046501666 -0.0098389555
000200 1c 54 18 3d 8b 90 e4 3c 00 a8 c7 3c 49 b9 cf 3b
       0.037189588 0.027900955 0.0243721 0.0063392264
000210 03 f0 63 3d 72 59 7d 3b a6 10 a5 bc 81 fe 90 bd
       0.055648815 0.003865805 -0.02014954 -0.07079793
000220 31 2a 83 bd 20 9f e6 bc c4 79 54 bc df 7a d3 3c
       -0.06404532 -0.028152049 -0.012968484 0.025815425
000230 6a 5f 3a 3c 18 c5 44 bd 5a 69 35 3b 3d d9 e3 bc
       0.011375288 -0.048039526 0.0027681203 -0.027813548
000240 34 db 67 bd 5d 67 ce bc 03 52 d9 bd 10 57 42 3d
       -0.056605533 -0.025195772 -0.106113456 0.04744631
000250 27 94 c8 3b 18 06 f5 3c d2 ce 72 3d 12 e5 09 bd
       0.0061211768 0.029910132 0.05927927 -0.033665724
000260 a3 a9 a1 bc 99 0f ab bd a7 e3 04 bd 91 8c c6 3b
       -0.01973421 -0.083525844 -0.03244367 0.0060592373
000270 28 9c 12 bd 0b d8 49 3b b3 72 b4 3b 34 cf 93 3d
       -0.035793453 0.0030798938 0.0055068373 0.07217255
000280 4b a1 27 bd 34 c8 c7 bc b7 fe f1 3b c2 1a 27 3d
       -0.040925305 -0.024387456 0.0073851007 0.040797003
000290 c9 dc 02 bd 1b 11 88 3d 5d 52 6e bd 57 1b b5 bc
       -0.03194884 0.066438876 -0.058184016 -0.022107763
0002a0 36 1f 3d bd ce 88 e4 bc 89 c7 58 bd ad 70 84 bd
       -0.046172343 -0.027897265 -0.052924667 -0.06466804
0002b0 28 a0 16 3d 45 c9 2b 3d d2 1c 54 3b 02 d4 eb bc
       0.03677383 0.041939992 0.003236581 -0.028787617
0002c0 51 53 37 bd e3 9a 0c bb 4c d7 0c bd 8c da 84 3d
       -0.04475719 -0.0021454624 -0.03438501 0.06486997
0002d0 10 52 68 bc 6e ee 45 3d 28 af 5c bd d6 87 d6 bb
       -0.0141797215 0.048323087 -0.05387798 -0.0065469546
0002e0 50 59 a1 3b 7b d3 eb 3c f3 4d 93 bc f6 60 25 3d
       0.004923977 0.028787365 -0.017981505 0.040375672
0002f0 90 c8 a0 bc 03 23 14 bd 01 7e 6b 3d 09 73 6d 3d
       -0.019626886 -0.036166202 0.057493214 0.057971034
000300 e3 1b ca 3c 64 e2 8b 3c b7 bc 55 bd 6d c0 8e bd
       0.0246715 0.017075725 -0.052181926 -0.06970296
000310 be 23 69 bd 9e f9 0f bd 40 2a 32 3d b3 bf 6b bb
       -0.056918852 -0.035150163 0.043497324 -0.0035972416
000320 10 1d d6 bc dd 58 80 bd 1d 45 36 bd 05 f7 2b 3d
       -0.026136905 -0.06266949 -0.044499505 0.041983623
000330 97 71 66 3b a8 8e bd 3c 3e dd 57 bd fd 22 ed 3c
       0.003516292 0.023139313 -0.052701227 0.028947348
000340 8b 53 3a ba f9 72 03 bc 00 87 d1 bc d5 eb 44 3a
       -0.0007107786 -0.008023017 -0.025577068 0.00075119484
000350 63 83 c8 3c 32 18 6a bb b0 2d 49 3c 70 51 46 bc
       0.024476713 -0.0035719988 0.012278959 -0.012104377
000360 6c 91 50 3d dd 9a 44 3d 44 e0 c5 bc ea 65 d3 bc
       0.050919935 0.04799925 -0.02415479 -0.025805432
000370 ab 18 71 bb 40 c3 9c bc 89 3b 91 bd 34 87 3e bd
       -0.0036788385 -0.019136071 -0.070914336 -0.04651566
000380 a4 6c 14 bd a5 79 32 bb 62 00 22 bd e8 6e b7 bc
       -0.03623642 -0.002723315 -0.039551146 -0.022391751
000390 2c e8 4b 3c 71 60 d9 3a e7 67 70 bb 58 3f a0 3c
       0.012445491 0.0016584528 -0.0036683024 0.019561455
0003a0 9b 2f b5 3c af e8 05 3d e0 ff 7e 3d 7f 73 24 3c
       0.022117427 0.032692607 0.06225574 0.010037302
0003b0 88 5e 9e bd a4 ff 77 bd 72 84 24 3d 89 5a 27 bd
       -0.07732874 -0.060546532 0.040165372 -0.040857825
0003c0 81 57 4d 3d 54 f6 df bc ca 1a ba 3d f3 4e 5f 3d
       0.05013228 -0.027339138 0.09087141 0.05451865
0003d0 a9 e9 92 bc bd 53 59 bd 2e 44 7b bc c5 f3 4d bc
       -0.017933683 -0.053058375 -0.0153360795 -0.012570326
0003e0 7a 6e 32 3d 17 d5 2b 3c 0e 51 20 bd 22 b6 01 3d
       0.04356239 0.010487816 -0.0391398 0.031667836
0003f0 af f1 c6 3c 50 ec 04 3c 59 02 fa 3a 83 62 62 3d
       0.024285166 0.008112982 0.0019074186 0.05526973

adv.bias f4 [3]
000000 fb 9b 73 3c 9c 51 18 3a 4b 99 61 bd
       0.014868732 0.00058105006 -0.055077832
