ppoS-113400.pth (torch, 277175 bytes, 7 tensors)

f1.weight f4 [256, 6]
0	0x3e412185	0.18860443
1	0x3eb3b14f	0.35096213
2	0xbe28da71	-0.16489579
3	0xbe4837ee	-0.19552585
4	0x3e1a7a99	0.1508583
5	0x3cc63430	0.024194807
6	0x3e990ccd	0.2989258
7	0xbe823004	-0.25427258
8	0x3d93052d	0.071787216
9	0x3dad9f0f	0.08477604
10	0xbe89422f	-0.26808307
11	0xbd40b66e	-0.04704898
12	0x3f1152c0	0.5676689
13	0x3e63ffc9	0.22265543
14	0x3eb9749a	0.36221772
15	0xbf8632f5	-1.0484301
16	0x3ece72bd	0.40321913
17	0xbea1f37a	-0.3163107
18	0x3e2475a0	0.16060495
19	0x3ea10a1c	0.31453025
20	0x3ea7bb07	0.32759878
21	0x3f0c1f2e	0.54735076
22	0x3e3882c6	0.18018636
23	0x3ab51d83	0.0013817999
24	0x3e4815eb	0.19539611
25	0xbee20d1e	-0.44150633
26	0xbd96e65b	-0.073681556
27	0xbea41c68	-0.32052922
28	0xbf801cb6	-1.0008762
29	0x3e5a72fc	0.21332926
30	0xbe36560a	-0.17806259
31	0xbccce236	-0.02501021
32	0xbd8c044e	-0.068367586
33	0x3e46fab1	0.19431569
34	0xbda6ac9f	-0.081383936
35	0x3d0df861	0.0346607
36	0x3ec384e7	0.38187334
37	0xbecd1b9b	-0.40060124
38	0xbd3839b0	-0.04497689
39	0x3db6175e	0.08891176
40	0xbe61885f	-0.22024678
41	0x3b9661a9	0.0045892787
42	0xbf48de44	-0.7846415
43	0xbf45fcf4	-0.773391
44	0xbe830809	-0.25592068
45	0x3fea0db9	1.8285438
46	0x3c271d7f	0.0101999035
47	0xbead946f	-0.33902308
48	0xbd8149cf	-0.06312906
49	0xbef1064f	-0.47075126
50	0xbe2ce781	-0.16885187
51	0x3f243798	0.6414733
52	0x3f055d05	0.5209506
53	0x3cf3250d	0.029680753
54	0x3de257bd	0.11051891
55	0x3f4a816c	0.7910373
56	0x3e4259be	0.18979546
57	0x3ce2669c	0.027636819
58	0x3efb0c06	0.4903261
59	0xbe9813c1	-0.2970257
60	0xbf06dd1e	-0.5268115
61	0xbf4a412f	-0.7900571
62	0xbebe6f5b	-0.37194332
63	0x3f970f43	1.1801533
64	0x3d7a33b5	0.061084468
65	0xbe3f9daa	-0.18712488
66	0xbe7a2e04	-0.24431616
67	0x3eccebda	0.4002369
68	0xbc37d861	-0.011221022
69	0xbe2586d2	-0.16164711
70	0xbe718cd6	-0.23588881
71	0xbdf687b9	-0.12037606
72	0xbe3f0ad5	-0.18656476
73	0x3e0442ae	0.12916061
74	0xbf26a03c	-0.6508825
75	0x3f0d570b	0.5521094
76	0x3ed00f09	0.4063647
77	0x3e33063f	0.17482851
78	0x3e4d6f4b	0.20061986
79	0xbe7ed47d	-0.24885745
80	0x3eb782f7	0.35842106
81	0xbe81a33f	-0.2531986
82	0xbf796ae4	-0.9742873
83	0xbe7aae34	-0.24480516
84	0x3d06860f	0.032842692
85	0x3e81dd7e	0.25364298
86	0xbe37d3bd	-0.17951865
87	0xbe756d6c	-0.23967522
88	0xbe01214b	-0.12610357
89	0xbc3eebde	-0.011652915
90	0xbe861de5	-0.26194683
91	0xbd94f8d2	-0.07274021
92	0xbc78c292	-0.015183108
93	0x3e63bc5a	0.22239819
94	0x3e2f0bc4	0.17094332
95	0xbce86d26	-0.028372359
96	0xbcfd7d10	-0.030943424
97	0xbdde9ab2	-0.108693495
98	0x3d9b23ad	0.07575164
99	0x3ded4860	0.1158607
100	0xbe0a23e9	-0.13490261
101	0xbe1c318f	-0.1525328
102	0xbdffff5e	-0.12499879
103	0xbddc446c	-0.10755238
104	0x3d7525ff	0.05985069
105	0x3e49e880	0.19717598
106	0xbda4e06e	-0.08050619
107	0xb98b1781	-0.00026529658
108	0xbee539b1	-0.44770578
109	0x3e35e608	0.17763531
110	0x3db00e4b	0.08596476
111	0x3f04a647	0.5181622
112	0x3ecda41b	0.40164265
113	0xbd902fcc	-0.070403665
114	0x3e90439f	0.2817659
115	0xbeb13b28	-0.34615445
116	0xbea2de51	-0.3181024
117	0x3ebb96b2	0.3663841
118	0xbd69d0f7	-0.05708405
119	0x3e5ef912	0.217747
120	0xbe6fe586	-0.234274
121	0x3de0fd09	0.109857626
122	0x3e2d51f5	0.16925795
123	0x3eafb54c	0.34318006
124	0x3e930038	0.28711104
125	0x3c7f1e47	0.0155711835
126	0xbe5ae4b9	-0.21376313
127	0xbf0d58bd	-0.5521353
128	0x3e2623a9	0.16224541
129	0xbe35cc5f	-0.17753743
130	0xbf0ed10b	-0.55787724
131	0xbe4717c7	-0.19442664
132	0x3e521b55	0.20518239
133	0x3e135e5e	0.14391467
134	0xbe3e6621	-0.18593647
135	0xbe888724	-0.26665604
136	0x3e9753c8	0.29556108
137	0xbd9e46f1	-0.07728375
138	0xbdeebe06	-0.11657338
139	0xbe92354f	-0.28556296
140	0xbead9fe8	-0.3391106
141	0x3f0528ae	0.520152
142	0x3ea4e0e0	0.32202816
143	0x3dd98b81	0.106223114
144	0x3eee151f	0.4650049
145	0x3e01a5e9	0.12660946
146	0xbe725363	-0.23664622
147	0xbe21a644	-0.15786082
148	0x3aa0e71d	0.0012275908
149	0xbd3060fc	-0.04306124
150	0x3e98bb49	0.29830387
151	0xbdfb9e94	-0.12286106
152	0xbd8576ec	-0.06516823
153	0xbe314abf	-0.1731367
154	0x3e3d3691	0.18477847
155	0xbc823f36	-0.015899282
156	0xbd5d7fd5	-0.05407699
157	0x3d5bd715	0.053671915
158	0xbd9210b0	-0.07132089
159	0x3e6e5598	0.23274839
160	0x3e60836f	0.21925138
161	0x3d8d8465	0.06910018
162	0xbd1e6f29	-0.03868023
163	0xbe75bd4f	-0.23997997
164	0x3deeebb3	0.1166605
165	0x3db0bba9	0.08629543
166	0x3ea83a36	0.3285691
167	0x3d9c1a2f	0.076221816
168	0xbd82ca66	-0.06386261
169	0xbeec8d9f	-0.46201798
170	0xbd642300	-0.05569744
171	0x3e496a4d	0.19669457
172	0x3eed1333	0.4630371
173	0x3da0fa74	0.0786027
174	0x3f46bce0	0.7763195
175	0x3e8a13f2	0.26968342
176	0x3eb5dc04	0.3551942
177	0xbfc78e12	-1.5590231
178	0x3daac9b8	0.08339256
179	0xbe3fb141	-0.18719961
180	0xbd7d8f10	-0.061904013
181	0x3e843287	0.258198
182	0xbdde3036	-0.10849039
183	0xbe6b762e	-0.229943
184	0x3d99e62a	0.075146034
185	0x3cea6be2	0.028615896
186	0xbdf52881	-0.11970616
187	0x3e62bf9e	0.22143409
188	0xbd16ce1f	-0.036817666
189	0xbe0ff5df	-0.14058636
190	0xbe530e1d	-0.20610853
191	0x3d084109	0.033265147
192	0xbe9c2fc6	-0.30505198
193	0x3e1ba8c4	0.15201098
194	0xbe03adc1	-0.1285925
195	0x3e4ed178	0.20197093
196	0x3ead6ae1	0.33870605
197	0x3da24777	0.07923787
198	0xbdd1806f	-0.10229575
199	0xbd1c0b5e	-0.038096778
200	0xbe70814c	-0.23486823
201	0x3f325640	0.6966286
202	0x3ea43e33	0.32078704
203	0x3dee8d83	0.11648085
204	0xbe9215d6	-0.28532284
205	0x3e9276f0	0.28606367
206	0x3ead0a96	0.3379714
207	0xbdd90d77	-0.10598271
208	0x3e9c4bc1	0.30526546
209	0x3dba7862	0.091049924
210	0xbeedc750	-0.46441126
211	0xbdcbc5a4	-0.09949806
212	0xbd3c02b2	-0.045901008
213	0x3d8b016b	0.0678738
214	0xbe89d068	-0.26916814
215	0x3e85b328	0.26113248
216	0xbd00fc6f	-0.03149074
217	0xbda247e5	-0.07923869
218	0xbe139b53	-0.1441472
219	0x3e86aedb	0.2630528
220	0xbe1e0fcb	-0.15435712
221	0x3afa7b18	0.0019110171
222	0x3f36f254	0.71463513
223	0x3ece1acb	0.40254816
224	0x3c48af64	0.012248848
225	0xbed78ad5	-0.42098108
226	0x3ea894a9	0.3292592
227	0x3e851a17	0.25996467
228	0x3e91458f	0.28373381
229	0xbe223433	-0.15840225
230	0x3b9772cc	0.004621839
231	0xbe7ab527	-0.24483167
232	0x3e063140	0.13104725
233	0x395a6dd0	0.00020831008
234	0x3ecae537	0.39628002
235	0x3e2ec186	0.17066011
236	0x3e65cda1	0.22441722
237	0xbebbbfb2	-0.3666969
238	0xbe92be5c	-0.28660858
239	0x3ce52115	0.027969876
240	0x3d7723e1	0.06033695
241	0xbe977503	-0.2958146
242	0xbd6badff	-0.057538982
243	0x3e5cc5e3	0.21559863
244	0x3e308883	0.17239575
245	0xbd8610d1	-0.06546176
246	0xbef6e6fa	-0.48223096
247	0xbf21e118	-0.6323409
248	0x3df3180a	0.118698195
249	0x3d6423c5	0.055698175
250	0x3f23503e	0.63794315
251	0x3ccbce11	0.024878534
252	0x3c672417	0.014107726
253	0x3ee46dd8	0.44615054
254	0x3ef5b278	0.47987723
255	0xbf156b10	-0.5836649

f1.bias f4 [256]
0	0xbe94415e	-0.2895612
1	0xbf148548	-0.5801587
2	0xbde37619	-0.1110651
3	0xbef6ba8e	-0.48189205
4	0xbf1fadaa	-0.62374365
5	0xbeb499e3	-0.35273656
6	0xbea14527	-0.31498072
7	0xbe318d94	-0.17339164
8	0xbf1f703b	-0.62280625
9	0xbeadd22c	-0.3394941
10	0xbe113c37	-0.14183126
11	0xbf173cc8	-0.5907712
12	0xbf19fd79	-0.60152394
13	0xbe87a957	-0.26496384
14	0xbeffb8ae	-0.49945587
15	0xbecf7d4c	-0.4052528
16	0xbebf97b4	-0.37420428
17	0xbe76afbc	-0.24090475
18	0xbf293c09	-0.6610723
19	0xbeca7110	-0.39539385
20	0xbef72222	-0.4826823
21	0xbebefaca	-0.37300712
22	0xbee48763	-0.44634542
23	0xbf0b811a	-0.5449387
24	0xbeeedbfb	-0.46652207
25	0xbe648d82	-0.22319606
26	0xbea53ec5	-0.32274452
27	0xbec7c6d1	-0.39018872
28	0xbf26faaa	-0.65226233
29	0xbd0b4d4d	-0.034009267
30	0xbecfa087	-0.4055216
31	0xbecbcd7e	-0.39805216
32	0xbef0fba5	-0.4706699
33	0xbf08cce6	-0.5343765
34	0xbef41dce	-0.4767899
35	0xbeb69826	-0.35662955
36	0xbe97b01c	-0.29626548
37	0xbecc574d	-0.39910355
38	0xbe9ebce7	-0.31003496
39	0xbe7d3a7a	-0.24729338
40	0xbed3c9db	-0.4136494
41	0xbe927968	-0.2860825
42	0xbeb71981	-0.35761645
43	0xbee324e0	-0.4436407
44	0xbe946394	-0.28982222
45	0xbecb067a	-0.3965338
46	0xbef5e7d3	-0.4802843
47	0xbf00e0f6	-0.50343263
48	0xbf02f212	-0.5115062
49	0xbe982dc8	-0.29722428
50	0xbec0a67f	-0.37627026
51	0xbed8787f	-0.4227943
52	0xbf0ed882	-0.55799115
53	0xbe926f60	-0.28600597
54	0xbece5a47	-0.4030325
55	0xbd472318	-0.048617452
56	0xbef6fd90	-0.48240328
57	0xbf415571	-0.75521
58	0xbefda082	-0.4953652
59	0xbec94d9f	-0.39317033
60	0xbed2a978	-0.4114492
61	0xbf0abf69	-0.5419832
62	0xbee95f9f	-0.45580766
63	0xbed179f3	-0.40913352
64	0xbe8d938c	-0.27651632
65	0xbea98a03	-0.33113107
66	0xbf0cc40e	-0.54986656
67	0xbed05cba	-0.40695745
68	0xbedf67d4	-0.43633902
69	0xbeab4dc4	-0.33457768
70	0xbebf50a6	-0.37366217
71	0xbf011847	-0.5042767
72	0xbe688ddc	-0.22710365
73	0xbe866fda	-0.2625721
74	0xbe7b9c71	-0.24571396
75	0xbdb4992e	-0.08818279
76	0xbec63483	-0.38711938
77	0xbea8234f	-0.32839438
78	0xbec2b658	-0.38029742
79	0xbf10eb86	-0.5660938
80	0xbf076a9e	-0.5289706
81	0xbef3dd60	-0.47629833
82	0xbf1a9fbf	-0.60400003
83	0xbe972944	-0.2952367
84	0xbeb1ee39	-0.34752062
85	0xbdaa3286	-0.08310418
86	0xbed1d81a	-0.40985185
87	0xbdb713b8	-0.08939308
88	0xbf25bdb5	-0.64742595
89	0xbf048e2c	-0.5177944
90	0xbf1931eb	-0.59841794
91	0xbebeec55	-0.37289682
92	0xbf5e4855	-0.8682912
93	0xbe928e87	-0.28624365
94	0xbedcb444	-0.43106282
95	0xbf030657	-0.5118155
96	0xbeef51e9	-0.4674218
97	0xbeb11eb7	-0.34593746
98	0xbf019a3c	-0.5062597
99	0xbec693cd	-0.38784638
100	0xbe981dee	-0.29710335
101	0xbe0715da	-0.1319193
102	0xbee567ec	-0.4480585
103	0xbeb51513	-0.3536764
104	0xbe433482	-0.19062999
105	0xbf13fda5	-0.57808906
106	0xbf32963e	-0.697605
107	0xbea21f6b	-0.31664595
108	0xbe6a51d6	-0.2288278
109	0xbf220fd6	-0.63305414
110	0xbf0888e0	-0.53333855
111	0xbe537560	-0.20650244
112	0xbea006e1	-0.31255248
113	0xbe4bb086	-0.19891557
114	0xbdf21674	-0.11820689
115	0xbe5a9a7d	-0.21347995
116	0xbf0b5a74	-0.54434896
117	0xbf366b68	-0.7125764
118	0xbf0d0568	-0.55086374
119	0xbed5030f	-0.41603896
120	0xbed2b776	-0.41155595
121	0xbea7f38d	-0.32803002
122	0xbef34977	-0.47516987
123	0xbf15fc3b	-0.58588
124	0xbe986928	-0.29767728
125	0xbe983296	-0.29726094
126	0xbe8f262e	-0.27958816
127	0xbf2c4ce9	-0.67304856
128	0xbee6212d	-0.44947186
129	0xbea19d82	-0.3156548
130	0xbe7521cb	-0.23938672
131	0xbf3d5f60	-0.73973656
132	0xbf045f78	-0.51708174
133	0xbeb4f2b7	-0.35341427
134	0xbf1fba56	-0.623937
135	0xbf28780b	-0.6580817
136	0xbefeb533	-0.4974762
137	0xbe4d64c2	-0.20057967
138	0xbebf3fc2	-0.3735333
139	0xbec47c6d	-0.3837618
140	0xbf0ee851	-0.55823237
141	0xbf0524c9	-0.52009255
142	0xbf05cf19	-0.5226913
143	0xbedc9365	-0.43081203
144	0xbebb7bee	-0.36617988
145	0xbecb8249	-0.39747837
146	0xbf1efb45	-0.62102157
147	0xbe1b5c37	-0.15171896
148	0xbf0e350f	-0.5554971
149	0xbe40d252	-0.18830231
150	0xbe87c498	-0.26517177
151	0xbeebd1ba	-0.46058446
152	0xbe8d4698	-0.2759292
153	0xbf1ee4a1	-0.6206761
154	0x3ce4aff4	0.027915932
155	0xbef17d02	-0.47165686
156	0xbe5a33c9	-0.21308817
157	0xbf1a0052	-0.6015674
158	0xbef49d46	-0.4777624
159	0xbf42e1ab	-0.7612559
160	0xbf1484a1	-0.58014876
161	0xbf07ffa7	-0.5312447
162	0xbf120db8	-0.57052183
163	0xbf0989e2	-0.5372602
164	0xbf1247bc	-0.5714071
165	0xbee5aebd	-0.44859877
166	0xbf3469e0	-0.7047405
167	0xbed54baa	-0.4165929
168	0xbf18adf0	-0.5964041
169	0xbe68174e	-0.2266514
170	0xbeeb12ba	-0.45912725
171	0xbe8e4acf	-0.2779145
172	0xbef44fb8	-0.4771707
173	0xbee1978c	-0.44060934
174	0xbed3c6fb	-0.41362748
175	0xbf259ef4	-0.6469567
176	0xbecdc76b	-0.40191206
177	0xbec0d8b1	-0.37665322
178	0xbe18a0ae	-0.14905044
179	0xbee6d458	-0.4508388
180	0xbee0d331	-0.43911126
181	0xbeb54ee7	-0.3541176
182	0xbea79c0d	-0.32736245
183	0xbeab37c2	-0.33440977
184	0xbe9694db	-0.29410443
185	0xbeea822c	-0.45802438
186	0xbf0cb3de	-0.54961956
187	0xbf06bce5	-0.5263198
188	0xbf0614dc	-0.5237558
189	0xbf20acec	-0.6276386
190	0xbeb2ea50	-0.3494439
191	0xbeb600f8	-0.35547614
192	0xbe8f6aa5	-0.2801105
193	0xbeb9299c	-0.36164558
194	0x3dcdd91b	0.10051175
195	0xbe791392	-0.24323872
196	0xbeb8f075	-0.36120954
197	0xbe940b9a	-0.289151
198	0xbf066e88	-0.5251241
199	0xbef17c27	-0.47165033
200	0xbeb19583	-0.3468438
201	0xbed0e5e2	-0.40800387
202	0xbebefc82	-0.37302023
203	0xbebf6c41	-0.3738728
204	0xbf1dad1e	-0.6159228
205	0xbf13c7c9	-0.5772672
206	0xbe4d1724	-0.20028359
207	0xbf1076ef	-0.5643148
208	0xbed72527	-0.42020532
209	0xbecd2706	-0.40068835
210	0xbf0c2f69	-0.5475984
211	0xbecf58fb	-0.40497574
212	0xbecd1efd	-0.40062705
213	0xbeb0452f	-0.34427783
214	0x3bf56a90	0.00748951
215	0xbe9677ad	-0.2938818
216	0xbeed8a06	-0.46394366
217	0xbecc0d9f	-0.39854142
218	0xbf0505d0	-0.51961994
219	0xbf16b7be	-0.5887412
220	0xbed99bbb	-0.42501625
221	0xbed5053e	-0.41605562
222	0xbe9b4149	-0.30323246
223	0xbf02e58c	-0.5113151
224	0xbee61a27	-0.44941828
225	0xbeeb177b	-0.45916352
226	0xbf0e0014	-0.5546887
227	0xbed82ed7	-0.42223236
228	0xbe8c465f	-0.2739744
229	0xbe82c5c4	-0.25541508
230	0xbeb7fd33	-0.35935363
231	0xbeceef7f	-0.40417096
232	0xbef44273	-0.47706947
233	0xbeef2088	-0.46704507
234	0xbefca66b	-0.49345717
235	0xbf23b478	-0.6394725
236	0xbea345c9	-0.3188918
237	0xbe0bcc23	-0.1365209
238	0xbeba0d2d	-0.36338177
239	0x3ec8f20b	0.39247164
240	0xbedf4046	-0.43603724
241	0xbeda0433	-0.4258133
242	0xbf2ab8c1	-0.6668816
243	0xbe86331e	-0.26210874
244	0xbf1d4f1d	-0.6144884
245	0xbf037dae	-0.51363647
246	0xbf097ac8	-0.53702974
247	0xbeceaeb3	-0.4036766
248	0xbedc6ce7	-0.43051836
249	0xbe463789	-0.19357122
250	0xbf2dd927	-0.67909473
251	0xbeb3b1c0	-0.3509655
252	0xbeb52d10	-0.35385942
253	0xbe2c98a6	-0.16855106
254	0xbf2b643b	-0.66949815
255	0xbf2c98dc	-0.67420745

f2.weight f4 [256, 256]
0	0xbcdc9fc0	-0.026931643
1	0xbd06bece	-0.03289681
2	0xbd754555	-0.059880573
3	0xbd8892a9	-0.06668598
4	0x3c0a0eaa	0.008426348
5	0xbd5b5351	-0.053546254
6	0xbda4c5c3	-0.080455326
7	0xbdb499d7	-0.08818405
8	0x3d493bf6	0.04912945
9	0x3d601df8	0.05471608
10	0xbd90801f	-0.07055687
11	0xbdaefffd	-0.0854492
12	0xbd82d4b5	-0.06388227
13	0x3d346e8e	0.044050746
14	0xbdde2b8f	-0.10848152
15	0x3d101d19	0.035184
16	0xbd8d023f	-0.06885194
17	0xbc30a89a	-0.010782385
18	0x3d229b51	0.039698903
19	0x3938f403	0.00017638509
20	0xbce99c2c	-0.028516851
21	0x3c83a892	0.016071592
22	0xbb469f83	-0.0030307479
23	0x3bb94c79	0.005654868
24	0xbd800e43	-0.0625272
25	0xbd175811	-0.03694922
26	0xbcfbf100	-0.030754566
27	0xbce5e2df	-0.028062282
28	0xbd9035ea	-0.07041533
29	0xbd00a2df	-0.031405326
30	0xbbfe0270	-0.0077517554
31	0xbba93872	-0.0051641995
32	0x3cad3af5	0.021146277
33	0x3d9f5a8c	0.07780942
34	0x3c68b2b6	0.014202764
35	0x3c45aaed	0.012064678
36	0x3cac9c50	0.02107063
37	0xbdfbc618	-0.12293643
38	0xbcc3a345	-0.023881564
39	0xbdc72d44	-0.097254306
40	0xbcbd2762	-0.023090068
41	0xbda6eccd	-0.08150635
42	0xbc95b454	-0.018274464
43	0xbca55ee7	-0.020186855
44	0x3ca5e2e2	0.020249788
45	0xbda71fb4	-0.08160344
46	0x3d6e912c	0.058243915
47	0x3d031334	0.032000735
48	0x3c1365cd	0.008996439
49	0x3d7e2e36	0.06205579
50	0xbde8743a	-0.113502935
51	0xbd0fedd6	-0.035138927
52	0x3cb48ffe	0.022041317
53	0xbd4d0e0a	-0.050062217
54	0x3d2273a7	0.039661076
55	0xbd026fe9	-0.031845007
56	0xbda2f7d8	-0.07957429
57	0xbd40c438	-0.04706213
58	0x3d43e74d	0.047828007
59	0x3d50843f	0.05090737
60	0x3d64bc1a	0.05584345
61	0x3d3a6aa8	0.04551187
62	0x3cd169b3	0.025563097
63	0x3d8924d2	0.06696476
64	0xbdd80141	-0.10547114
65	0xbd8c8e30	-0.068630576
66	0xbaccb171	-0.0015616847
67	0xbdc18d17	-0.09450739
68	0x3d0c4e68	0.03425446
69	0xbd911048	-0.070831835
70	0xbd570af6	-0.052500688
71	0xbab05fd1	-0.001345629
72	0xbb19e8d3	-0.0023484721
73	0xbda05a4e	-0.07829724
74	0xbd859dba	-0.065242246
75	0xbdc06baf	-0.09395539
76	0x3c920c71	0.017828198
77	0xbd4fc5f4	-0.050725892
78	0x3c23c995	0.009996791
79	0x3ce30c8c	0.027715944
80	0xbd79a582	-0.060948856
81	0xbc0766c2	-0.008264245
82	0xbd4d5763	-0.050132167
83	0x3adaabeb	0.0016683316
84	0xbd1dd97c	-0.038537487
85	0xbdea16e5	-0.11430148
86	0x3d730f6e	0.059340887
87	0xbc615ea5	-0.013755475
88	0x3d1792cd	0.037005235
89	0xbdd10c1e	-0.10207389
90	0x3c3c5bde	0.011496512
91	0xbc936b63	-0.017995542
92	0x3bacd0a0	0.0052738935
93	0xbb9f8468	-0.004868079
94	0xbdd94f7c	-0.106108636
95	0xbc90099b	-0.017582705
96	0xbcabb42c	-0.020959936
97	0xbcf463b2	-0.029832695
98	0xbd8bc0b8	-0.068238676
99	0xbc0c4dd9	-0.008563482
100	0x3d44d320	0.048052907
101	0xbc993e6f	-0.018706528
102	0xbdc9f72d	-0.09861598
103	0xbd1cc1bd	-0.0382707
104	0xbc845012	-0.016151462
105	0xbdd46af3	-0.103719614
106	0xbd80e3e7	-0.06293469
107	0xbd1eb582	-0.038747318
108	0xbd765f4b	-0.060149472
109	0xbdda6ad4	-0.10664907
110	0xbd9ca3d1	-0.07648433
111	0x3c00a710	0.007852331
112	0xbd48ae2d	-0.048994232
113	0xbd39e622	-0.045385487
114	0xbd948b94	-0.07253185
115	0xbd40e9a7	-0.04709783
116	0xbb8b4ef5	-0.004251356
117	0xbd1b7c63	-0.03796042
118	0xbd8f7a90	-0.07005799
119	0xbbd16274	-0.0063899104
120	0xbd5fc9f7	-0.054635968
121	0xbdd153c9	-0.10221059
122	0x3c5ff498	0.013669156
123	0xbdab637d	-0.08368585
124	0xbd454361	-0.04815996
125	0xbd7f7107	-0.06236365
126	0xbd88ddb4	-0.066829115
127	0x38dd6de0	0.00010558567
128	0x3d168669	0.036749277
129	0x3c47229d	0.012154249
130	0x3c028d91	0.007968322
131	0xbd08345b	-0.033253055
132	0x3d261501	0.040547375
133	0xbd9fc90e	-0.0780202
134	0xbdbdd650	-0.092693925
135	0xbd453626	-0.048147343
136	0xbd3a50a1	-0.04548705
137	0xbd28f319	-0.04124746
138	0xbd3e9780	-0.0465312
139	0xbc6ae329	-0.014336386
140	0x3cded3b6	0.027200561
141	0xbd345223	-0.044023644
142	0x3bce18d7	0.0062895822
143	0x3ab83593	0.0014054052
144	0xbd64faac	-0.05590312
145	0xbe00c7ab	-0.12576167
146	0x3cc8cc84	0.024511583
147	0xbcc824c7	-0.0244316
148	0xbdba17af	-0.090865485
149	0xbd1f5d9d	-0.038907636
150	0xbd986687	-0.074414305
151	0xbda4e53d	-0.08051536
152	0xbdcc14ae	-0.09964882
153	0x3cffe4ba	0.031236995
154	0xbc9bc3d3	-0.019014275
155	0xbd26e041	-0.04074121
156	0x3ae3c13f	0.0017376317
157	0xbb3ce87c	-0.0028825095
158	0xbcb4c237	-0.022065265
159	0x3b61542d	0.0034382448
160	0xbcde9b5c	-0.02717369
161	0xbd84f669	-0.064923115
162	0x3c7f32f7	0.015576116
163	0x3d375846	0.04476192
164	0xbdd370bd	-0.103242375
165	0x3cd83e1c	0.026396804
166	0xbbdc9fe7	-0.006732929
167	0x3d8a7293	0.067601345
168	0xbcc691d9	-0.024239467
169	0x3cd6b8fb	0.026211252
170	0x3b47cf05	0.0030488383
171	0xbcab956e	-0.020945277
172	0xbd77cd01	-0.06049824
173	0xbd66180f	-0.056175288
174	0xbdbe532d	-0.09293208
175	0x3d418f54	0.04725583
176	0xbd5a4798	-0.053290933
177	0x3c22a289	0.009926447
178	0xbd75a4eb	-0.05997173
179	0xba35a2ab	-0.00069288415
180	0x3cbeb3b4	0.023279049
181	0xbca65bc2	-0.020307425
182	0xbd6fb7d4	-0.05852492
183	0x3d710742	0.058844812
184	0x3ce40117	0.02783255
185	0xbd3c539e	-0.04597818
186	0xbb7d5d9b	-0.003866053
187	0x3b2d5fa4	0.0026454711
188	0x3c0d2ae3	0.008616182
189	0x3c9f21c5	0.019425282
190	0xbdb23475	-0.08701412
191	0xbd8cf4ca	-0.06882627
192	0x3cd74343	0.02627719
193	0xbd7b8d2b	-0.061413925
194	0xbd44c304	-0.048037544
195	0xbd450736	-0.04810258
196	0xbd8d212c	-0.06891093
197	0xbd1d2c21	-0.038372163
198	0xbdd68f31	-0.1047653
199	0xbdd17d66	-0.10228996
200	0x3c96a4da	0.018389154
201	0x3aed0ae4	0.0018084911
202	0x3b0c2706	0.0021385564
203	0x3c13cb05	0.009020572
204	0x3d49b657	0.04924616
205	0x3c39531c	0.011311319
206	0xbac57646	-0.0015065155
207	0xbca54df1	-0.020178767
208	0xbd7ed28a	-0.062212504
209	0xbd776ae9	-0.06040469
210	0xbd828e9c	-0.06374857
211	0xbcfea4ff	-0.031084536
212	0x3cd72e92	0.026267324
213	0xbd315967	-0.04329815
214	0x3ce717af	0.028209535
215	0xbb2c015e	-0.0026245932
216	0x3cc02738	0.023456201
217	0x3d7c346a	0.061573423
218	0xbdd48ed6	-0.10378806
219	0x3d958291	0.07300294
220	0xbcef8a3d	-0.029240722
221	0xbc0a0548	-0.008424111
222	0xbc6df0fa	-0.014522785
223	0xbd52f009	-0.051498447
224	0xbd92f5fc	-0.07175824
225	0x3da4b82b	0.0804294
226	0x3d0f1f0d	0.03494172
227	0xbde74073	-0.112915896
228	0xbcbeef1b	-0.023307374
229	0xbd7746e7	-0.060370352
230	0xbccf1d5e	-0.025282558
231	0x3db4d493	0.08829608
232	0xbd29c1c4	-0.041444555
233	0xbc923e49	-0.017851966
234	0x3ce4a75b	0.027911833
235	0x3d7bc718	0.061469167
236	0xbd02aa19	-0.0319005
237	0x3cdc54a0	0.026895821
238	0x3c5a206a	0.013313392
239	0xbbf59cc6	-0.0074954955
240	0xbd3272e9	-0.043566618
241	0x3d14f646	0.036367677
242	0x3d162bd9	0.03666291
243	0xbca407b4	-0.020023204
244	0xbbf91d6b	-0.007602384
245	0x3b31eb28	0.002714822
246	0xbca0e2f0	-0.019639462
247	0x3d7c2540	0.061558962
248	0xbd51a9f3	-0.051187467
249	0xbcbc4836	-0.022983652
250	0x3d99e9a7	0.07515269
251	0x3cd82d9a	0.026388932
252	0xbdb0130e	-0.085973844
253	0x3d20ecb7	0.03928825
254	0x3ce8fc54	0.028440632
255	0x3d030887	0.031990554

f2.bias f4 [256]
0	0xbd50007e	-0.05078172
1	0xbe23e499	-0.16005172
2	0xbdb2c373	-0.08728685
3	0x3da5e27a	0.080998376
4	0xbd8a4085	-0.067505874
5	0xbe036697	-0.12832104
6	0xbd09be93	-0.03362901
7	0xbe2f2c44	-0.1710673
8	0xbdd082aa	-0.10181172
9	0xbe643f03	-0.22289662
10	0xbc213a8e	-0.009840621
11	0xbdb7599b	-0.08952638
12	0xbe04abf0	-0.12956214
13	0xbe83a276	-0.25709885
14	0xbe96c542	-0.2944737
15	0xbdde5e1d	-0.108577944
16	0xbec2ede4	-0.3807212
17	0x3bfc2db1	0.0076958765
18	0xbdee4fce	-0.11636315
19	0xbe2ff9aa	-0.17185083
20	0x3de136f4	0.109968096
21	0xbdc4aa8e	-0.09602843
22	0xbe0a0bcd	-0.13481064
23	0xbc89f839	-0.016841995
24	0xbdd10625	-0.1020625
25	0xbe9d46c1	-0.30718043
26	0xbf19031a	-0.5977036
27	0xbdaebf2a	-0.085325554
28	0x3d9f8c44	0.077904254
29	0xbeac4a9d	-0.33650675
30	0xbdde8fd2	-0.10867275
31	0xbea0261a	-0.3127907
32	0xbe81d0fd	-0.25354758
33	0xbdca4868	-0.09877092
34	0xbef00f04	-0.46886456
35	0xbdb06959	-0.086138435
36	0xbd145a73	-0.03621907
37	0xbe8630be	-0.26209062
38	0xbc99bb77	-0.018766148
39	0xbc286726	-0.010278499
40	0xbe2f3e78	-0.17113674
41	0xbd12beef	-0.03582662
42	0xbebd91fd	-0.37025443
43	0xbef623f1	-0.48074296
44	0xbdbfcbab	-0.093650185
45	0xbe836705	-0.25664535
46	0xbe554329	-0.20826401
47	0xbf158a35	-0.5841401
48	0xbe8138d0	-0.25238657
49	0x3d982989	0.07429797
50	0xbe82ae9f	-0.2552385
51	0xbd94c032	-0.07263221
52	0xbd200e22	-0.039075978
53	0xbdc36520	-0.095407724
54	0xbdb6e6a8	-0.08930713
55	0xbdcca498	-0.09992331
56	0xbd297916	-0.041375242
57	0xbdf1354e	-0.11777745
58	0xbd7f32eb	-0.06230442
59	0xbe859ad3	-0.26094684
60	0xbe85592a	-0.2604459
61	0xbeb6605e	-0.35620397
62	0xbed3210a	-0.41236144
63	0xbeb44a32	-0.35212857
64	0x3e90947a	0.2823828
65	0xbd9797b6	-0.074019834
66	0xbeeec875	-0.46637312
67	0xbd4d3800	-0.050102234
68	0xbe4e5c90	-0.20152497
69	0xbd80475a	-0.06263609
70	0xbdcb3ecb	-0.09924086
71	0xbe95f69e	-0.29289716
72	0xbe991e08	-0.29905725
73	0xbe5e81e0	-0.21729231
74	0xbe7c6448	-0.2464763
75	0xbe1d4925	-0.15359934
76	0xbe5fa06c	-0.2183854
77	0xbea4c2a9	-0.32179764
78	0xbf0e0021	-0.55468947
79	0xbe3da98b	-0.18521707
80	0xbe85272f	-0.26006457
81	0xbe0e24cd	-0.13881226
82	0xbe5198e4	-0.2046848
83	0xbd0042f8	-0.031313866
84	0xbe08c3e2	-0.13355973
85	0xbee5e5ad	-0.4490179
86	0x3d1a2636	0.037634097
87	0x3d4c8840	0.049934626
88	0xbef9a4de	-0.48758596
89	0xbd939d8f	-0.07207786
90	0xbe33b0cc	-0.17547911
91	0xbe6a4e85	-0.22881515
92	0x3e0d434d	0.13795204
93	0xbe191019	-0.14947547
94	0xbf3424a2	-0.703684
95	0xbcaea073	-0.021316743
96	0xbe471ae3	-0.1944385
97	0x3ce2502c	0.02762612
98	0xbda78d78	-0.0818128
99	0xbd557560	-0.05211389
100	0x3d9ad7dd	0.07560704
101	0xbe88468a	-0.26616317
102	0xbe3bfac2	-0.18357375
103	0xbd08bfa2	-0.03338588
104	0xbdd48e51	-0.10378707
105	0xbcedb5aa	-0.029017288
106	0xbdb63902	-0.08897592
107	0xbf04d82d	-0.5189236
108	0xbe6b0535	-0.22951205
109	0xbda7b8c7	-0.0818954
110	0x3f0ca1fa	0.54934657
111	0xbe8bc33c	-0.2729739
112	0xbebbdd66	-0.3669235
113	0xbd725401	-0.059162144
114	0xbdad982e	-0.084762916
115	0xbef3701f	-0.4754648
116	0x3ec87cef	0.39157817
117	0xbdcc0024	-0.09960964
118	0xbe901aaa	-0.28145343
119	0x3dd16302	0.10223962
120	0xbede9376	-0.4347188
121	0x3cc8b201	0.024498941
122	0xbd90fa49	-0.07078988
123	0xbd8757ed	-0.066085674
124	0xbe414025	-0.18872125
125	0xbe32ed83	-0.17473416
126	0xbe6b0ed7	-0.2295488
127	0x3d673e65	0.05645599
128	0xbe5f3af9	-0.2179984
129	0xbe428b03	-0.18998341
130	0xbdfc29ca	-0.12312658
131	0xbe8faa5f	-0.2805967
132	0xbe61ec42	-0.22062781
133	0xbe2713d6	-0.1631616
134	0xbd9685eb	-0.073497616
135	0xbed6bd95	-0.41941515
136	0xbebccf19	-0.36876753
137	0xbe46d139	-0.1941575
138	0xbf3f4a69	-0.74722916
139	0xbeb022a9	-0.34401444
140	0xbea920b0	-0.3303275
141	0xbdd4632a	-0.103704765
142	0xbeed4db4	-0.46348345
143	0x3dd55aa1	0.10417677
144	0xbda8f122	-0.082491174
145	0xbe1968a1	-0.14981319
146	0xbe936a1c	-0.28791893
147	0xbe92dec6	-0.28685588
148	0x3d5d965d	0.054098476
149	0xbdda485c	-0.10658333
150	0xbec4cfd5	-0.38439813
151	0xbeb9500b	-0.3619388
152	0x3e9fcccf	0.31210944
153	0xbe11c5c0	-0.14235592
154	0xbdc37df7	-0.0954551
155	0xbe526f71	-0.20550324
156	0xbf0409ce	-0.5157746
157	0xbdc4d1f0	-0.09610355
158	0xbca50963	-0.020146077
159	0xbe4eddf1	-0.20201851
160	0x3e2519ee	0.16123173
161	0xbe8179f1	-0.25288346
162	0xbdba28f0	-0.090898395
163	0xbe02be03	-0.12767796
164	0x3d0cfe0e	0.034421973
165	0xbeeac4c6	-0.4585325
166	0xbdce67a0	-0.10078359
167	0xbe739d88	-0.23790562
168	0xbe3a2656	-0.18178686
169	0xbe8c03ce	-0.27346653
170	0xbeb601c5	-0.35548225
171	0x3e084671	0.13308121
172	0xbde376fa	-0.11106677
173	0xbe34268e	-0.17592832
174	0xbe3825f1	-0.17983223
175	0xbf5b329f	-0.85624117
176	0x3df098f6	0.11747925
177	0xbe87ef99	-0.26549986
178	0xbd1df8d4	-0.03856738
179	0xbe8ddb3f	-0.27706334
180	0xbdfb0e22	-0.12258555
181	0xbeb380a2	-0.35059077
182	0xbce27c94	-0.027647294
183	0xbe6c3003	-0.2306519
184	0xbe9d323c	-0.30702388
185	0xbe0d7757	-0.13815056
186	0xbe6274e1	-0.22114898
187	0xbdc4464a	-0.09583719
188	0xbebb0ade	-0.36531729
189	0xbf1d3a38	-0.6141696
190	0xbf2a82df	-0.66605943
191	0xbed316c8	-0.41228318
192	0xbe93ec83	-0.28891382
193	0xbeb59096	-0.35461873
194	0xbf0840b2	-0.5322372
195	0xbe1ca255	-0.152963
196	0xbd19f2a3	-0.037584912
197	0xbe3c303a	-0.18377772
198	0xbdeac30e	-0.11462985
199	0x3d5486e9	0.051886473
200	0xbef03990	-0.46918917
201	0xbeb5cc16	-0.35507268
202	0xbe8d6e8f	-0.27623412
203	0x3e472ed6	0.1945146
204	0xbedb4ebc	-0.42833507
205	0xbd593171	-0.053025667
206	0xbebda321	-0.3703852
207	0xbe866254	-0.26246893
208	0xbd136883	-0.035988342
209	0xbe41244e	-0.18861505
210	0xbe9a60ad	-0.30151883
211	0xbd80c4d0	-0.06287539
212	0xbe59c77b	-0.21267502
213	0x3d0c60db	0.034272056
214	0x3e07de2a	0.13268343
215	0x3ddc8eb9	0.1076941
216	0x3d596885	0.053078193
217	0xbe48e2f2	-0.19617823
218	0xbe9f4ca7	-0.3111317
219	0xbde383cf	-0.11109125
220	0xbced21bc	-0.02894675
221	0xbdd86e79	-0.10567946
222	0xbc2850f7	-0.01027321
223	0xbeeba51d	-0.4602441
224	0xbdc2f89d	-0.095200755
225	0xbdcb3e72	-0.0992402
226	0x3e8367a2	0.25665003
227	0x3e00ca1f	0.12577103
228	0xbe18d094	-0.14923316
229	0xbe65df99	-0.22448577
230	0xbe1e3c7a	-0.15452757
231	0xbdfa063f	-0.122082226
232	0xbe76a635	-0.2408684
233	0xbdef2610	-0.11677182
234	0xbe2fb3b3	-0.17158394
235	0xbec68a03	-0.3877717
236	0xbcf40553	-0.029787695
237	0xbecf695e	-0.40510076
238	0xbe2111f2	-0.15729502
239	0xbe04e703	-0.12978749
240	0xbf0f0e1a	-0.5588089
241	0xbe90e85d	-0.2830228
242	0x3bf84fe9	0.0075778854
243	0xbd599424	-0.053119794
244	0xbe140f10	-0.14458871
245	0xbc9a293c	-0.01881849
246	0xbda7d78c	-0.08195409
247	0xbea2014e	-0.3164162
248	0xbeb16aa0	-0.3465166
249	0x3d56699e	0.05234682
250	0xbe8cd06c	-0.27502763
251	0xbe57e63d	-0.21083923
252	0xbed90bdc	-0.4239186
253	0xbebc80f2	-0.36817127
254	0xbeaf1799	-0.3419769
255	0xbec8527b	-0.39125428

val.weight f4 [1, 256]
0	0x3d3da5c2	0.046300657
1	0xbe6f6c5b	-0.23381178
2	0x3c36201c	0.011116054
3	0x3df8a761	0.121413
4	0x3d16d0a2	0.03682006
5	0xbdc5dc4b	-0.09661158
6	0x3ee49699	0.44646147
7	0xbd93ac9d	-0.07210658
8	0xbddc5dc1	-0.1076007
9	0xbc541514	-0.012944479
10	0xbe97ae21	-0.29625037
11	0xbb60368b	-0.0034212198
12	0xbd528efb	-0.051405888
13	0x3e00b51b	0.12569086
14	0x3eb36fbe	0.3504619
15	0xbe03adde	-0.12859294
16	0xbd931a30	-0.07182729
17	0xbe2a0264	-0.16602474
18	0xbd69a53e	-0.057042353
19	0xbc159b66	-0.009131288
20	0xbd972283	-0.073796295
21	0x3baec298	0.005333256
22	0x3d5f0e55	0.054457027
23	0x3f273641	0.6531716
24	0xbb95854d	-0.00456301
25	0xbc8fdcd3	-0.017561352
26	0x3c157aa8	0.009123482
27	0xbe825034	-0.25451815
28	0xbe58e94e	-0.21182749
29	0x3f0a0a1f	0.53921694
30	0xbd967ca7	-0.07347994
31	0x3b609202	0.0034266715
32	0x3e58059a	0.21095887
33	0xbe4ae243	-0.19812874
34	0xbbac3dda	-0.0052563967
35	0x3d0e50d1	0.03474504
36	0xbe59247e	-0.21205327
37	0x3e2caf1b	0.16863672
38	0xbc7db2a3	-0.015484485
39	0xbdf32315	-0.11871926
40	0xbd134122	-0.035950787
41	0xbde0a88e	-0.10969649
42	0x3c2f2d37	0.010691932
43	0x3c8d6970	0.01726219
44	0x3c014e3a	0.007892186
45	0x3d3f5889	0.046715293
46	0xbb96e2e5	-0.0046046847
47	0x3d644b2c	0.055735752
48	0x3d994090	0.074830174
49	0xbf32e178	-0.6987529
50	0x3d2d3623	0.042287957
51	0x3d42e0b9	0.047577593
52	0xbbd7ec75	-0.006589467
53	0xbe991b76	-0.29903764
54	0xbeb8a122	-0.36060435
55	0xbd5e39e7	-0.05425444
56	0x3d253f43	0.040343534
57	0xbd18e930	-0.03733176
58	0xbcc06058	-0.02348344
59	0xbc0b859d	-0.008515743
60	0x3e82db5d	0.25557986
61	0x3d59a229	0.053133164
62	0xbe86862d	-0.26274243
63	0x3ec175d9	0.37785223
64	0xbe818471	-0.25296357
65	0xbc183ad1	-0.009291367
66	0xbdc3c832	-0.095596686
67	0xbd0d8843	-0.034553777
68	0xbd9f2cbb	-0.077722035
69	0x3f225046	0.6340374
70	0x3c2e23bc	0.010628637
71	0x3deca23f	0.115543835
72	0x3a9a7e0e	0.0011786835
73	0x3d338bb9	0.04383442
74	0x3e1fa9a5	0.15592058
75	0xbdbd815c	-0.09253189
76	0x3d802f2a	0.06258996
77	0xbe753eb0	-0.23949695
78	0xbe9eb1ad	-0.3099493
79	0x3d48600c	0.048919722
80	0xbc024946	-0.00795204
81	0xbdea4b36	-0.114401266
82	0x3daa60b4	0.08319226
83	0xbd84cb1b	-0.06484052
84	0xbdb36493	-0.087594174
85	0x3e51d025	0.20489557
86	0x3eba5a4d	0.3639702
87	0xbcb13b6f	-0.021634785
88	0x3c9581c6	0.018250357
89	0x3dacad64	0.08431509
90	0xbbac88b3	-0.0052653193
91	0xbb4231d2	-0.0029631746
92	0x3d870763	0.06593206
93	0xbd8656a9	-0.06559498
94	0x3d72e624	0.05930151
95	0xbd5d4270	-0.054018438
96	0x3e1196a7	0.14217626
97	0xbb034bef	-0.0020034274
98	0xbb8ab91f	-0.004233494
99	0x3dd331ad	0.10312209
100	0xbdecf661	-0.115704305
101	0xbacc3a62	-0.0015581364
102	0xbcdb0494	-0.026735581
103	0xbc5204ab	-0.012818496
104	0xbd8ba483	-0.068184875
105	0xbddef34d	-0.1088625
106	0x3ef29b13	0.47383937
107	0xbd803e05	-0.06261829
108	0xba528967	-0.0008031339
109	0xbc5e4f25	-0.013568674
110	0x3e637eca	0.22216335
111	0xbca7af24	-0.020469256
112	0x3d06b0a5	0.032883305
113	0x3eabef1a	0.33580858
114	0xbc3489cf	-0.011019184
115	0xbd309975	-0.043115098
116	0xbd2c4853	-0.04206116
117	0x3f3ed963	0.74550456
118	0x3ee170f1	0.4403148
119	0x3ee93a29	0.45552185
120	0x3c1243a1	0.008927257
121	0xbdea75da	-0.1144826
122	0x3ed8c6b2	0.42339092
123	0xbceb708c	-0.02874019
124	0x3d432279	0.047640298
125	0xbe5854cb	-0.21126096
126	0x3da945c8	0.08265263
127	0x3ea54501	0.32279208
128	0xbf38171b	-0.71910256
129	0x3be3e7fa	0.006955144
130	0xbc58256f	-0.013192519
131	0xbeda08a9	-0.42584732
132	0xbe892b86	-0.26791018
133	0xbd9a34ce	-0.07529603
134	0xbb172c85	-0.0023067307
135	0x3ddf7148	0.109102786
136	0x3cde83aa	0.027162392
137	0xbd3d79d0	-0.046258748
138	0xbe524041	-0.20532323
139	0xbc8c9d70	-0.017164916
140	0x3dca891c	0.09889433
141	0xba597250	-0.0008294927
142	0x3ea66aad	0.32503262
143	0xbf3f5f33	-0.7475464
144	0xbc1772f9	-0.00924372
145	0x3e81d5d7	0.2535846
146	0xbd011ac9	-0.031519685
147	0xbdf2d775	-0.118575014
148	0x3e306745	0.17226894
149	0x3f26be45	0.6513408
150	0x3efc6f91	0.49303868
151	0xbc15d3bd	-0.009144721
152	0x3c8255e2	0.015910093
153	0x3d64bdcb	0.055845063
154	0xbd6dfc7d	-0.05810212
155	0x3e609aa8	0.21933997
156	0x3dd6b27e	0.104832634
157	0xba6dce97	-0.0009071617
158	0x3eaa7fab	0.33300528
159	0x3bf6064c	0.007508075
160	0xbdf2a03d	-0.11846969
161	0xbde11fbe	-0.109923825
162	0x3d310c35	0.043224532
163	0xbe5be307	-0.21473323
164	0xbb7eee36	-0.003889931
165	0xbdb66264	-0.08905485
166	0xbdf95b71	-0.12175644
167	0x3eac138a	0.33608657
168	0x3dd02548	0.10163361
169	0x3e473238	0.1945275
170	0x3bf67a40	0.0075218976
171	0xbe19399d	-0.14963384
172	0xbebad13b	-0.36487755
173	0xbb844c97	-0.0040374505
174	0x3d0b3bb4	0.033992484
175	0xbc12e1a2	-0.008964928
176	0xbebb9511	-0.36637166
177	0xbe91bfcd	-0.28466645
178	0xbced81e7	-0.028992606
179	0xbd98ac3f	-0.07454728
180	0xbcdbd1de	-0.02683347
181	0xbd262471	-0.040562097
182	0xbe540d34	-0.20708162
183	0xbb805bfe	-0.0039172163
184	0xbd6abc4b	-0.057308476
185	0x3e18f86d	0.14938517
186	0xbdd1287f	-0.10212802
187	0x3d4c1a2e	0.049829654
188	0x3e32d4b6	0.17463955
189	0x3bf9757a	0.0076128813
190	0xbe188723	-0.148953
191	0x3d25a06f	0.040436205
192	0xbdde2090	-0.108460546
193	0xbef0ed34	-0.47055972
194	0x3e59db6d	0.2127511
195	0xbed04f1e	-0.40685362
196	0xbe47be13	-0.19506101
197	0xbe14c188	-0.14526951
198	0x3d376802	0.044776924
199	0xbde638d0	-0.11241305
200	0x3e965a11	0.2936559
201	0xbde301d7	-0.11084335
202	0x3bcc7a77	0.006240185
203	0xbe4ce011	-0.2000735
204	0x3d85ac43	0.06526997
205	0xbc0e3f4f	-0.008682086
206	0xbef0085b	-0.46881375
207	0x3f1b845d	0.60748845
208	0xbe4b3b86	-0.19846925
209	0x3e931451	0.28726438
210	0xbf0353bd	-0.5129965
211	0xbb866e34	-0.0041024927
212	0x3d03563c	0.03206466
213	0x3f1819ea	0.5941454
214	0xbec8bab5	-0.39204946
215	0xbe29d6e1	-0.16585876
216	0x3e62cd45	0.22148617
217	0xbf1a2630	-0.6021452
218	0x3bf7c13e	0.007560878
219	0x3c2838c6	0.010267442
220	0xbe91bd31	-0.28464654
221	0xbf0a84c4	-0.54108834
222	0xbe89c6e4	-0.26909554
223	0xbe4ef9f7	-0.20212542
224	0x3e79bf8f	0.2438948
225	0x3b1ab538	0.002360655
226	0x3f1028bf	0.56312174
227	0xbde23d63	-0.11046865
228	0x3d3df368	0.04637471
229	0xbd8be219	-0.06830234
230	0xbdb923d2	-0.09040035
231	0x3d4fe529	0.050755654
232	0x3de46dd0	0.111537576
233	0x3c8c2896	0.017109197
234	0xbd31710f	-0.04332071
235	0x3b9b82a6	0.004745799
236	0xbd868350	-0.065680146
237	0xbe684b4b	-0.22684972
238	0xbd18ba94	-0.03728731
239	0x3d4f1e30	0.0505659
240	0x3c03644b	0.008019517
241	0x3d1de270	0.038546026
242	0x3d57b826	0.052665852
243	0x3e061f2a	0.13097826
244	0xbe07cb0d	-0.13261051
245	0x3d334823	0.043769967
246	0xba982992	-0.0011609069
247	0xbce390fa	-0.027779091
248	0x3e612fb2	0.2199085
249	0x3e0bcfbd	0.13653465
250	0xbe9983b8	-0.29983306
251	0xbd9730d1	-0.07382358
252	0x3e249049	0.16070665
253	0x3c19fa95	0.009398122
254	0xbc897b18	-0.016782328
255	0xbc4f0a56	-0.012636742

adv.weight f4 [3, 256]
0	0xbd84c57b	-0.06482979
1	0x3c202ed1	0.009776787
2	0xbbc907c7	-0.0061349603
3	0x3cb72026	0.022354197
4	0xbcae8245	-0.021302352
5	0x3b0aeed8	0.002119949
6	0xbcc9988b	-0.024608871
7	0x3c868c39	0.016424285
8	0x3bebf93e	0.007201343
9	0xbcb7ef9c	-0.022453122
10	0xbcf4021a	-0.029786158
11	0x3b673e4a	0.003528493
12	0xbcc0cd44	-0.023535378
13	0x3bfcf606	0.007719758
14	0x3bd7ef17	0.006589781
15	0xbb6a7b63	-0.003577911
16	0x3c0ce060	0.008598417
17	0x3aebcb9c	0.0017989757
18	0x3b60b04c	0.0034284769
19	0x3cba3274	0.022729136
20	0xbc4a0856	-0.012331089
21	0xbce1c534	-0.027559854
22	0x3c703aa6	0.01466242
23	0x3c178cfc	0.009249922
24	0xbc97aa34	-0.018513776
25	0xbc5d9b38	-0.013525777
26	0xbc8b2357	-0.016984625
27	0x3c819666	0.015818786
28	0xbd000658	-0.03125605
29	0x3b8d56b9	0.0043133167
30	0xbcf8630a	-0.030320663
31	0xbc68c40c	-0.0142068975
32	0x3cce203c	0.025161855
33	0xbcaab972	-0.02084038
34	0x3c7d0608	0.0154433325
35	0xbce13a93	-0.02749375
36	0x3d0ba790	0.034095347
37	0x39da0430	0.0004158332
38	0xbd1258bb	-0.03572915
39	0xbca347f9	-0.01993178
40	0xbd0067bb	-0.031348925
41	0xbb126ba2	-0.0022341986
42	0xbd28ce9b	-0.04121266
43	0x3a9f556b	0.0012156194
44	0x3c9ef6eb	0.019404849
45	0xbc201585	-0.009770756
46	0x3ca783f5	0.020448664
47	0x3ba0274b	0.0048874966
48	0x3b0a4a06	0.002110125
49	0xbc322154	-0.010872204
50	0xbc327c0d	-0.010893834
51	0xbd2e8197	-0.042604055
52	0xbc9ffc2e	-0.019529428
53	0xbc07fe91	-0.008300439
54	0x3d0b8734	0.034064487
55	0x3cd27227	0.025689198
56	0xbcc4ca28	-0.024022177
57	0xbc5d906d	-0.013523203
58	0x3d2561cb	0.040376466
59	0xba612871	-0.0008589095
60	0x3c6f7335	0.01461487
61	0xb9bff918	-0.00036615948
62	0x3be364f6	0.0069395257
63	0xbcd456a7	-0.025920225
64	0x3c002b0c	0.007822763
65	0x3cd5b9cb	0.02608957
66	0x3c5592d9	0.0130354995
67	0xbd082e07	-0.03324702
68	0x3ccebc16	0.02523617
69	0xbb912195	-0.004429052
70	0xbb9cb369	-0.0047821295
71	0xbd4e42af	-0.050356563
72	0xbc698a24	-0.014254127
73	0x3b8468c2	0.0040408084
74	0xbcab2180	-0.020889997
75	0x3ab41bfd	0.0013741251
76	0x3b1e02e7	0.0024110617
77	0xbca1537b	-0.019693127
78	0x3c79f089	0.015255102
79	0xbcb21a88	-0.021741167
80	0x3d030a7a	0.031992413
81	0xbbd102c9	-0.006378506
82	0xbcfded05	-0.030996809
83	0xbcbcf8aa	-0.023067791
84	0x3cbac29c	0.022797875
85	0x3cae901b	0.02130895
86	0x3c4d0383	0.012513044
87	0xbcf1d0f4	-0.029518582
88	0x3cb6eaaa	0.022328693
89	0x3cb0614e	0.021530773
90	0xbbcfa4ba	-0.0063367756
91	0xbba2e5aa	-0.0049712257
92	0xbcbb593d	-0.0228697
93	0xba707eef	-0.0009174188
94	0xbcb6122d	-0.022225464
95	0x3c3620a6	0.011116182
96	0xbc599bb2	-0.01328175
97	0xbca158a1	-0.019695582
98	0xbc50fb60	-0.012755245
99	0xb7d6a53b	-2.558773e-05
100	0xbd5d933c	-0.05409549
101	0xbc8bc970	-0.017063826
102	0xbbe119f5	-0.0068695494
103	0xbcbf316f	-0.023339001
104	0x3d0f19ad	0.034936596
105	0x3bfdea24	0.007748859
106	0xb946bfcf	-0.00018954206
107	0x3c8c3fd9	0.017120289
108	0x3d0aceac	0.033888504
109	0x3cee539b	0.0290926
110	0xbcc5e98d	-0.024159217
111	0x3bc598d4	0.0060301814
112	0xbc1b802f	-0.009491011
113	0x3ce8a9d2	0.02840129
114	0x3bc89a96	0.0061219437
115	0x3c1b12e1	0.00946495
116	0x3c426f53	0.011867362
117	0xbce2f2cd	-0.027703667
118	0xbd47e7d3	-0.04880507
119	0xbb9d3c4f	-0.004798449
120	0xbc612da0	-0.013743788
121	0xbc960c01	-0.01831627
122	0x3d1e3ae3	0.038630378
123	0x3cdfbc06	0.027311336
124	0xba0aa692	-0.0005289103
125	0x3c962422	0.018327776
126	0x3b3de7f1	0.002897736
127	0xbbf889d0	-0.007584788
128	0xbc1ac2a6	-0.009445822
129	0x3cb47632	0.022029016
130	0x3c811f62	0.015762035
131	0x3d5b92f5	0.053606946
132	0xbb7a45ba	-0.0038188533
133	0xbca3342e	-0.019922342
134	0x3afb67a7	0.0019180671
135	0x3cd2af90	0.02571848
136	0xbcb50f9e	-0.022102173
137	0x3c2199d5	0.009863337
138	0xbbd26a1a	-0.0064213397
139	0x3c8a90e1	0.016914787
140	0xbc99e728	-0.018786982
141	0xbd33c346	-0.0438874
142	0xbbf0be0b	-0.0073468736
143	0xbcca4840	-0.024692655
144	0x3c86a155	0.016434351
145	0x3cc7066f	0.02429506
146	0x3b76c41b	0.003765351
147	0x3b0c0bfd	0.002136945
148	0xbc9e1a49	-0.019299643
149	0xbb7dd4fb	-0.0038731683
150	0x3cd20db4	0.0256413
151	0x3c13cef0	0.009021506
152	0xbd18bd31	-0.037289802
153	0xbb4ed59c	-0.0031560427
154	0xbd16741c	-0.036731824
155	0xbd0c3246	-0.034227632
156	0x3d309c3b	0.043117743
157	0x3d2640e4	0.04058923
158	0x3ce94b9b	0.028478434
159	0x3c6c64bb	0.014428313
160	0x3a5f5fc7	0.0008521047
161	0xbc809e59	-0.015700506
162	0x3ccf248f	0.025285987
163	0xbd46c6b1	-0.04852933
164	0x3ca1bb61	0.01974267
165	0xbb266df4	-0.0025395127
166	0x3ad92533	0.0016566872
167	0xbbe12260	-0.006870553
168	0xbced94de	-0.02900165
169	0x3c0b2eb8	0.008495025
170	0x3d35864e	0.044317536
171	0xbce0a3f6	-0.027421933
172	0xbc2db3ac	-0.010601919
173	0x3c288604	0.010285858
174	0x3d15b4f3	0.03654952
175	0xbc0f2e32	-0.008739041
176	0xbca48c10	-0.020086318
177	0xbcc5ed29	-0.024160938
178	0x3d1b32b9	0.03789017
179	0x3cc619ad	0.024182165
180	0xbc8eb7b1	-0.017421575
181	0xbc35ce63	-0.01109657
182	0x3c4ff4b5	0.01269262
183	0xbc9c6d86	-0.019095194
184	0x3c45e100	0.01207757
185	0xbb3ecd64	-0.0029114122
186	0x3d04820a	0.032350577
187	0x3c8fc215	0.0175486
188	0x3c2d9d5e	0.010596601
189	0xbc568699	-0.013093614
190	0xbaf07d26	-0.0018347844
191	0xb9611821	-0.00021466661
192	0x3cafe3ff	0.021471022
193	0x3b28e83b	0.0025773186
194	0xbd07e487	-0.033176925
195	0xbc347a0c	-0.011015426
196	0xbbe09d49	-0.0068546874
197	0xbcabcd36	-0.020971876
198	0xbca260a5	-0.019821474
199	0x3ce680e8	0.02813764
200	0xbc3d5748	-0.011556454
201	0x3d140713	0.03613956
202	0xbcf2c271	-0.029633733
203	0xbcc569f2	-0.02409837
204	0x3ca858e5	0.0205502
205	0xbb14a79a	-0.0022682906
206	0x3aa15e88	0.0012311498
207	0xbb73dc52	-0.0037210179
208	0x3c184de2	0.009295912
209	0xbc9f0a89	-0.019414203
210	0xbc2989fe	-0.010347841
211	0x3cc83ed2	0.024444018
212	0xbd5d5741	-0.05403829
213	0x3bc4cf65	0.0060061687
214	0x3d58b6c3	0.05290867
215	0x3c6d3b34	0.014479447
216	0x3cb7f48a	0.022455472
217	0x3bbbf812	0.0057363594
218	0xbd271aae	-0.040796928
219	0xbc4c55fd	-0.012471673
220	0xbd22d012	-0.039749213
221	0xbc112e8c	-0.008861195
222	0x3bce0d1f	0.0062881853
223	0x3b86e3e5	0.0041165226
224	0x3bc3143d	0.0059533403
225	0xbc8b7a83	-0.017026192
226	0xb9ea98d8	-0.00044745835
227	0xbcb01c7e	-0.021497961
228	0xbcd46a37	-0.025929553
229	0x3c8b3f7c	0.016998045
230	0x3c26dd13	0.010184544
231	0x3cee822d	0.029114807
232	0x3c8ee40e	0.01744273
233	0xbd6d0df7	-0.057874646
234	0x3c85bbd0	0.016324908
235	0x3a320c63	0.0006792007
236	0xbb420e09	-0.0029610416
237	0xbb225d9a	-0.002477503
238	0xbbd23bac	-0.006415805
239	0xbccd5032	-0.025062654
240	0xbc6b8c01	-0.014376641
241	0xbbc07df3	-0.0058743893
242	0xbca521d1	-0.020157726
243	0xbcdc2e10	-0.026877433
244	0x3bb7aa1e	0.0056049963
245	0x3c8df9a7	0.017330958
246	0x3cde25fe	0.027117725
247	0x3b677769	0.0035318977
248	0x3c3a346e	0.011365039
249	0x3c1808e6	0.009279465
250	0xbc781558	-0.0151418075
251	0xbb8235bc	-0.003973691
252	0xb9188c7d	-0.00014548186
253	0x3c8a671d	0.016894871
254	0x3b6d4f51	0.0036210606
255	0xbc8bc219	-0.017060326

adv.bias f4 [3]
0	0x3ca45185	0.020058403
1	0x3ca4cc85	0.020117054
2	0x3ca62e54	0.020285763
